…
I0906 17:37:27.137887  3398 net.cpp:50] Initializing net from parameters: 
name: "VPGNet-noVP"
state {
  phase: TRAIN
}
layer {
  name: "data"
  type: "DriveData"
  top: "data"
  top: "label"
  top: "type"
  include {
    phase: TRAIN
  }
  transform_param {
    mean_file: "./driving_mean_train.binaryproto"
  }
  data_param {
    source: "./LMDB_train"
    batch_size: 24
    backend: LMDB
  }
  drive_data_param {
    shrink_prob_factor: 1
    unrecognize_factor: 0
    crop_num: 1
    random_crop_ratio: 1
    resize: 1
    scale: 1
    catalog_resolution: 4
    reco_min: 4
    train_min: 4
  }
}
layer {
  name: "slice-label"
  type: "Slice"
  bottom: "label"
  top: "pixel-label"
  top: "bb-label"
  top: "size-label"
  top: "norm-label"
  slice_param {
    slice_dim: 1
    slice_point: 1
    slice_point: 5
    slice_point: 7
  }
}
layer {
  name: "pixel-block"
  type: "Concat"
  bottom: "pixel-label"
  bottom: "pixel-label"
  bottom: "pixel-label"
  bottom: "pixel-label"
  top: "pixel-block"
  concat_param {
    concat_dim: 1
  }
}
layer {
  name: "size-block"
  type: "Concat"
  bottom: "size-label"
  bottom: "size-label"
  top: "size-block"
  concat_param {
    concat_dim: 1
  }
}
layer {
  name: "norm-block"
  type: "Concat"
  bottom: "norm-label"
  bottom: "norm-label"
  bottom: "norm-label"
  bottom: "norm-label"
  top: "norm-block"
  concat_param {
    concat_dim: 1
  }
}
layer {
  name: "bb-label-size-normalization"
  type: "Eltwise"
  bottom: "bb-label"
  bottom: "size-block"
  top: "bb-label-sn"
  eltwise_param {
    operation: PROD
  }
}
layer {
  name: "bb-label-num-pixel-normalization"
  type: "Eltwise"
  bottom: "bb-label-sn"
  bottom: "norm-block"
  top: "bb-label-sn-nn"
  eltwise_param {
    operation: PROD
  }
}
layer {
  name: "L0"
  type: "Convolution"
  bottom: "data"
  top: "L0"
  param {
    lr_mult: 1
    decay_mult: 1
  }
  param {
    lr_mult: 2
    decay_mult: 0
  }
  convolution_param {
    num_output: 96
    kernel_size: 11
    stride: 4
    weight_filler {
      type: "gaussian"
      std: 0.01
    }
    bias_filler {
      type: "constant"
      value: 1
    }
  }
}
layer {
  name: "relu1"
  type: "ReLU"
  bottom: "L0"
  top: "L0"
}
layer {
  name: "norm1"
  type: "LRN"
  bottom: "L0"
  top: "norm1"
  lrn_param {
    local_size: 5
    alpha: 0.0005
    beta: 0.75
    k: 2
  }
}
layer {
  name: "pool1"
  type: "Pooling"
  bottom: "norm1"
  top: "pool1"
  pooling_param {
    pool: MAX
    kernel_size: 3
    stride: 2
  }
}
layer {
  name: "L1"
  type: "Convolution"
  bottom: "pool1"
  top: "L1"
  param {
    lr_mult: 1
    decay_mult: 1
  }
  param {
    lr_mult: 2
    decay_mult: 0
  }
  convolution_param {
    num_output: 256
    pad: 2
    kernel_size: 5
    group: 1
    weight_filler {
      type: "gaussian"
      std: 0.01
    }
    bias_filler {
      type: "constant"
      value: 1
    }
  }
}
layer {
  name: "relu2"
  type: "ReLU"
  bottom: "L1"
  top: "L1"
}
layer {
  name: "norm2"
  type: "LRN"
  bottom: "L1"
  top: "norm2"
  lrn_param {
    local_size: 5
    alpha: 0.0005
    beta: 0.75
    k: 8
  }
}
layer {
  name: "pool2"
  type: "Pooling"
  bottom: "norm2"
  top: "pool2"
  pooling_param {
    pool: MAX
    kernel_size: 3
    stride: 2
  }
}
layer {
  name: "L2"
  type: "Convolution"
  bottom: "pool2"
  top: "L2"
  param {
    lr_mult: 1
    decay_mult: 1
  }
  param {
    lr_mult: 2
    decay_mult: 0
  }
  convolution_param {
    num_output: 384
    pad: 1
    kernel_size: 3
    weight_filler {
      type: "gaussian"
      std: 0.01
    }
    bias_filler {
      type: "constant"
      value: 0.1
    }
  }
}
layer {
  name: "relu3"
  type: "ReLU"
  bottom: "L2"
  top: "L2"
}
layer {
  name: "L3"
  type: "Convolution"
  bottom: "L2"
  top: "L3"
  param {
    lr_mult: 1
    decay_mult: 1
  }
  param {
    lr_mult: 2
    decay_mult: 0
  }
  convolution_param {
    num_output: 384
    pad: 1
    kernel_size: 3
    group: 1
    weight_filler {
      type: "gaussian"
      std: 0.01
    }
    bias_filler {
      type: "constant"
      value: 0.1
    }
  }
}
layer {
  name: "relu4"
  type: "ReLU"
  bottom: "L3"
  top: "L3"
}
layer {
  name: "L4"
  type: "Convolution"
  bottom: "L3"
  top: "L4"
  param {
    lr_mult: 1
    decay_mult: 1
  }
  param {
    lr_mult: 2
    decay_mult: 0
  }
  convolution_param {
    num_output: 384
    pad: 1
    kernel_size: 3
    group: 1
    weight_filler {
      type: "gaussian"
      std: 0.01
    }
    bias_filler {
      type: "constant"
      value: 0.1
    }
  }
}
layer {
  name: "relu5"
  type: "ReLU"
  bottom: "L4"
  top: "L4"
}
layer {
  name: "pool5"
  type: "Pooling"
  bottom: "L4"
  top: "pool5"
  pooling_param {
    pool: MAX
    kernel_size: 3
    stride: 2
  }
}
layer {
  name: "L5"
  type: "Convolution"
  bottom: "pool5"
  top: "L5"
  param {
    lr_mult: 1
    decay_mult: 1
  }
  param {
    lr_mult: 2
    decay_mult: 0
  }
  convolution_param {
    num_output: 4096
    pad: 3
    kernel_size: 6
    weight_filler {
      type: "gaussian"
      std: 0.01
    }
    bias_filler {
      type: "constant"
      value: 1
    }
  }
}
layer {
  name: "relu6"
  type: "ReLU"
  bottom: "L5"
  top: "L5"
}
layer {
  name: "drop6"
  type: "Dropout"
  bottom: "L5"
  top: "L5"
  dropout_param {
    dropout_ratio: 0.5
  }
}
layer {
  name: "L6a"
  type: "Convolution"
  bottom: "L5"
  top: "L6a"
  param {
    lr_mult: 5
    decay_mult: 0.1
  }
  param {
    lr_mult: 2
    decay_mult: 0
  }
  convolution_param {
    num_output: 4096
    kernel_size: 1
    weight_filler {
      type: "gaussian"
      std: 0.01
    }
    bias_filler {
      type: "constant"
      value: 1
    }
  }
}
layer {
  name: "relu7a"
  type: "ReLU"
  bottom: "L6a"
  top: "L6a"
}
layer {
  name: "drop7a"
  type: "Dropout"
  bottom: "L6a"
  top: "L6a"
  dropout_param {
    dropout_ratio: 0.5
  }
}
layer {
  name: "L6b"
  type: "Convolution"
  bottom: "L5"
  top: "L6b"
  param {
    lr_mult: 5
    decay_mult: 0.1
  }
  param {
    lr_mult: 2
    decay_mult: 0
  }
  convolution_param {
    num_output: 4096
    kernel_size: 1
    weight_filler {
      type: "gaussian"
      std: 0.01
    }
    bias_filler {
      type: "constant"
      value: 1
    }
  }
}
layer {
  name: "relu7b"
  type: "ReLU"
  bottom: "L6b"
  top: "L6b"
}
layer {
  name: "drop7b"
  type: "Dropout"
  bottom: "L6b"
  top: "L6b"
  dropout_param {
    dropout_ratio: 0.5
  }
}
layer {
  name: "L6c"
  type: "Convolution"
  bottom: "L5"
  top: "L6c"
  param {
    lr_mult: 5
    decay_mult: 0.1
  }
  param {
    lr_mult: 2
    decay_mult: 0
  }
  convolution_param {
    num_output: 4096
    kernel_size: 1
    weight_filler {
      type: "gaussian"
      std: 0.01
    }
    bias_filler {
      type: "constant"
      value: 1
    }
  }
}
layer {
  name: "relu7c"
  type: "ReLU"
  bottom: "L6c"
  top: "L6c"
}
layer {
  name: "drop7c"
  type: "Dropout"
  bottom: "L6c"
  top: "L6c"
  dropout_param {
    dropout_ratio: 0.5
  }
}
layer {
  name: "bb-output"
  type: "Convolution"
  bottom: "L6a"
  top: "bb-output"
  param {
    lr_mult: 20
    decay_mult: 0.1
  }
  param {
    lr_mult: 20
    decay_mult: 0
  }
  convolution_param {
    num_output: 256
    kernel_size: 1
    weight_filler {
      type: "gaussian"
      std: 0.01
    }
    bias_filler {
      type: "constant"
      value: 0
    }
  }
}
layer {
  name: "pixel-conv"
  type: "Convolution"
  bottom: "L6b"
  top: "pixel-conv"
  param {
    lr_mult: 1
    decay_mult: 1
  }
  param {
    lr_mult: 2
    decay_mult: 0
  }
  convolution_param {
    num_output: 128
    kernel_size: 1
    weight_filler {
      type: "gaussian"
      std: 0.01
    }
    bias_filler {
      type: "constant"
      value: 0
    }
  }
}
layer {
  name: "type-conv"
  type: "Convolution"
  bottom: "L6c"
  top: "type-conv"
  param {
    lr_mult: 1
    decay_mult: 1
  }
  param {
    lr_mult: 2
    decay_mult: 0
  }
  convolution_param {
    num_output: 1024
    kernel_size: 1
    weight_filler {
      type: "gaussian"
      std: 0.01
    }
    bias_filler {
      type: "constant"
      value: 0
    }
  }
}
layer {
  name: "pixel-tile"
  type: "Tiling"
  bottom: "pixel-conv"
  top: "pixel-conv-tiled"
  tiling_param {
    tile_dim: 8
  }
}
layer {
  name: "bb-tile"
  type: "Tiling"
  bottom: "bb-output"
  top: "bb-output-tiled"
  tiling_param {
    tile_dim: 8
  }
}
layer {
  name: "type-tile"
  type: "Tiling"
  bottom: "type-conv"
  top: "type-conv-tiled"
  tiling_param {
    tile_dim: 4
  }
}
layer {
  name: "pixel-loss"
  type: "SoftmaxWithLoss"
  bottom: "pixel-conv-tiled"
  bottom: "pixel-label"
  top: "pixel-loss"
  loss_weight: 1
}
layer {
  name: "type-loss"
  type: "SoftmaxWithLoss"
  bottom: "type-conv-tiled"
  bottom: "type"
  top: "type-loss"
  loss_weight: 1
}
layer {
  name: "bb-prob-mask"
  type: "Eltwise"
  bottom: "bb-output-tiled"
  bottom: "pixel-block"
  top: "bb-masked-output"
  eltwise_param {
    operation: PROD
  }
}
layer {
  name: "bb-size-normalization"
  type: "Eltwise"
  bottom: "bb-masked-output"
  bottom: "size-block"
  top: "bb-masked-output-sn"
  eltwise_param {
    operation: PROD
  }
}
layer {
  name: "bb-num-pixel-normalization"
  type: "Eltwise"
  bottom: "bb-masked-output-sn"
  bottom: "norm-block"
  top: "bb-masked-output-sn-nn"
  eltwise_param {
    operation: PROD
  }
}
layer {
  name: "bb-loss"
  type: "L1Loss"
  bottom: "bb-masked-output-sn-nn"
  bottom: "bb-label-sn-nn"
  top: "bb-loss"
  loss_weight: 3
}
I0906 17:37:27.153695  3398 layer_factory.hpp:76] Creating layer data
I0906 17:37:27.181473  3398 net.cpp:110] Creating Layer data
I0906 17:37:27.181545  3398 net.cpp:432] data -> data
I0906 17:37:27.181610  3398 net.cpp:432] data -> label
I0906 17:37:27.181638  3398 net.cpp:432] data -> type
I0906 17:37:27.181664  3398 data_transformer.cpp:23] Loading mean file from: ./driving_mean_train.binaryproto
I0906 17:37:27.195663  3405 db_lmdb.cpp:22] Opened lmdb ./LMDB_train
I0906 17:37:27.228881  3398 drive_data_layer.cpp:49] output data size: 24,3,480,640
I0906 17:37:27.348237  3398 net.cpp:155] Setting up data
I0906 17:37:27.348287  3398 net.cpp:163] Top shape: 24 3 480 640 (22118400)
I0906 17:37:27.348294  3398 net.cpp:163] Top shape: 24 8 120 160 (3686400)
I0906 17:37:27.348299  3398 net.cpp:163] Top shape: 24 1 60 80 (115200)
I0906 17:37:27.348306  3398 layer_factory.hpp:76] Creating layer slice-label
I0906 17:37:27.348327  3398 net.cpp:110] Creating Layer slice-label
I0906 17:37:27.348335  3398 net.cpp:476] slice-label <- label
I0906 17:37:27.348348  3398 net.cpp:432] slice-label -> pixel-label
I0906 17:37:27.348361  3398 net.cpp:432] slice-label -> bb-label
I0906 17:37:27.348367  3398 net.cpp:432] slice-label -> size-label
I0906 17:37:27.348373  3398 net.cpp:432] slice-label -> norm-label
I0906 17:37:27.348384  3398 net.cpp:155] Setting up slice-label
I0906 17:37:27.348389  3398 net.cpp:163] Top shape: 24 1 120 160 (460800)
I0906 17:37:27.348394  3398 net.cpp:163] Top shape: 24 4 120 160 (1843200)
I0906 17:37:27.348399  3398 net.cpp:163] Top shape: 24 2 120 160 (921600)
I0906 17:37:27.348403  3398 net.cpp:163] Top shape: 24 1 120 160 (460800)
I0906 17:37:27.348407  3398 layer_factory.hpp:76] Creating layer pixel-label_slice-label_0_split
I0906 17:37:27.348413  3398 net.cpp:110] Creating Layer pixel-label_slice-label_0_split
I0906 17:37:27.348418  3398 net.cpp:476] pixel-label_slice-label_0_split <- pixel-label
I0906 17:37:27.348424  3398 net.cpp:432] pixel-label_slice-label_0_split -> pixel-label_slice-label_0_split_0
I0906 17:37:27.348440  3398 net.cpp:432] pixel-label_slice-label_0_split -> pixel-label_slice-label_0_split_1
I0906 17:37:27.348448  3398 net.cpp:432] pixel-label_slice-label_0_split -> pixel-label_slice-label_0_split_2
I0906 17:37:27.348453  3398 net.cpp:432] pixel-label_slice-label_0_split -> pixel-label_slice-label_0_split_3
I0906 17:37:27.348487  3398 net.cpp:432] pixel-label_slice-label_0_split -> pixel-label_slice-label_0_split_4
I0906 17:37:27.348496  3398 net.cpp:155] Setting up pixel-label_slice-label_0_split
I0906 17:37:27.348502  3398 net.cpp:163] Top shape: 24 1 120 160 (460800)
I0906 17:37:27.348506  3398 net.cpp:163] Top shape: 24 1 120 160 (460800)
I0906 17:37:27.348511  3398 net.cpp:163] Top shape: 24 1 120 160 (460800)
I0906 17:37:27.348515  3398 net.cpp:163] Top shape: 24 1 120 160 (460800)
I0906 17:37:27.348520  3398 net.cpp:163] Top shape: 24 1 120 160 (460800)
I0906 17:37:27.348525  3398 layer_factory.hpp:76] Creating layer size-label_slice-label_2_split
I0906 17:37:27.348529  3398 net.cpp:110] Creating Layer size-label_slice-label_2_split
I0906 17:37:27.348533  3398 net.cpp:476] size-label_slice-label_2_split <- size-label
I0906 17:37:27.348539  3398 net.cpp:432] size-label_slice-label_2_split -> size-label_slice-label_2_split_0
I0906 17:37:27.348546  3398 net.cpp:432] size-label_slice-label_2_split -> size-label_slice-label_2_split_1
I0906 17:37:27.348551  3398 net.cpp:155] Setting up size-label_slice-label_2_split
I0906 17:37:27.348556  3398 net.cpp:163] Top shape: 24 2 120 160 (921600)
I0906 17:37:27.348560  3398 net.cpp:163] Top shape: 24 2 120 160 (921600)
I0906 17:37:27.348564  3398 layer_factory.hpp:76] Creating layer norm-label_slice-label_3_split
I0906 17:37:27.348569  3398 net.cpp:110] Creating Layer norm-label_slice-label_3_split
I0906 17:37:27.348574  3398 net.cpp:476] norm-label_slice-label_3_split <- norm-label
I0906 17:37:27.348579  3398 net.cpp:432] norm-label_slice-label_3_split -> norm-label_slice-label_3_split_0
I0906 17:37:27.348585  3398 net.cpp:432] norm-label_slice-label_3_split -> norm-label_slice-label_3_split_1
I0906 17:37:27.348590  3398 net.cpp:432] norm-label_slice-label_3_split -> norm-label_slice-label_3_split_2
I0906 17:37:27.348596  3398 net.cpp:432] norm-label_slice-label_3_split -> norm-label_slice-label_3_split_3
I0906 17:37:27.348603  3398 net.cpp:155] Setting up norm-label_slice-label_3_split
I0906 17:37:27.348619  3398 net.cpp:163] Top shape: 24 1 120 160 (460800)
I0906 17:37:27.348624  3398 net.cpp:163] Top shape: 24 1 120 160 (460800)
I0906 17:37:27.348628  3398 net.cpp:163] Top shape: 24 1 120 160 (460800)
I0906 17:37:27.348634  3398 net.cpp:163] Top shape: 24 1 120 160 (460800)
I0906 17:37:27.348636  3398 layer_factory.hpp:76] Creating layer pixel-block
I0906 17:37:27.348644  3398 net.cpp:110] Creating Layer pixel-block
I0906 17:37:27.348647  3398 net.cpp:476] pixel-block <- pixel-label_slice-label_0_split_0
I0906 17:37:27.348652  3398 net.cpp:476] pixel-block <- pixel-label_slice-label_0_split_1
I0906 17:37:27.348656  3398 net.cpp:476] pixel-block <- pixel-label_slice-label_0_split_2
I0906 17:37:27.348660  3398 net.cpp:476] pixel-block <- pixel-label_slice-label_0_split_3
I0906 17:37:27.348665  3398 net.cpp:432] pixel-block -> pixel-block
I0906 17:37:27.348677  3398 net.cpp:155] Setting up pixel-block
I0906 17:37:27.348682  3398 net.cpp:163] Top shape: 24 4 120 160 (1843200)
I0906 17:37:27.348686  3398 layer_factory.hpp:76] Creating layer size-block
I0906 17:37:27.348691  3398 net.cpp:110] Creating Layer size-block
I0906 17:37:27.348695  3398 net.cpp:476] size-block <- size-label_slice-label_2_split_0
I0906 17:37:27.348701  3398 net.cpp:476] size-block <- size-label_slice-label_2_split_1
I0906 17:37:27.348706  3398 net.cpp:432] size-block -> size-block
I0906 17:37:27.348711  3398 net.cpp:155] Setting up size-block
I0906 17:37:27.348716  3398 net.cpp:163] Top shape: 24 4 120 160 (1843200)
I0906 17:37:27.348719  3398 layer_factory.hpp:76] Creating layer size-block_size-block_0_split
I0906 17:37:27.348724  3398 net.cpp:110] Creating Layer size-block_size-block_0_split
I0906 17:37:27.348731  3398 net.cpp:476] size-block_size-block_0_split <- size-block
I0906 17:37:27.348737  3398 net.cpp:432] size-block_size-block_0_split -> size-block_size-block_0_split_0
I0906 17:37:27.348742  3398 net.cpp:432] size-block_size-block_0_split -> size-block_size-block_0_split_1
I0906 17:37:27.348748  3398 net.cpp:155] Setting up size-block_size-block_0_split
I0906 17:37:27.348773  3398 net.cpp:163] Top shape: 24 4 120 160 (1843200)
I0906 17:37:27.348778  3398 net.cpp:163] Top shape: 24 4 120 160 (1843200)
I0906 17:37:27.348783  3398 layer_factory.hpp:76] Creating layer norm-block
I0906 17:37:27.348788  3398 net.cpp:110] Creating Layer norm-block
I0906 17:37:27.348793  3398 net.cpp:476] norm-block <- norm-label_slice-label_3_split_0
I0906 17:37:27.348798  3398 net.cpp:476] norm-block <- norm-label_slice-label_3_split_1
I0906 17:37:27.348814  3398 net.cpp:476] norm-block <- norm-label_slice-label_3_split_2
I0906 17:37:27.348819  3398 net.cpp:476] norm-block <- norm-label_slice-label_3_split_3
I0906 17:37:27.348824  3398 net.cpp:432] norm-block -> norm-block
I0906 17:37:27.348829  3398 net.cpp:155] Setting up norm-block
I0906 17:37:27.348834  3398 net.cpp:163] Top shape: 24 4 120 160 (1843200)
I0906 17:37:27.348837  3398 layer_factory.hpp:76] Creating layer norm-block_norm-block_0_split
I0906 17:37:27.348842  3398 net.cpp:110] Creating Layer norm-block_norm-block_0_split
I0906 17:37:27.348846  3398 net.cpp:476] norm-block_norm-block_0_split <- norm-block
I0906 17:37:27.348851  3398 net.cpp:432] norm-block_norm-block_0_split -> norm-block_norm-block_0_split_0
I0906 17:37:27.348857  3398 net.cpp:432] norm-block_norm-block_0_split -> norm-block_norm-block_0_split_1
I0906 17:37:27.348863  3398 net.cpp:155] Setting up norm-block_norm-block_0_split
I0906 17:37:27.348870  3398 net.cpp:163] Top shape: 24 4 120 160 (1843200)
I0906 17:37:27.348875  3398 net.cpp:163] Top shape: 24 4 120 160 (1843200)
I0906 17:37:27.348878  3398 layer_factory.hpp:76] Creating layer bb-label-size-normalization
I0906 17:37:27.348886  3398 net.cpp:110] Creating Layer bb-label-size-normalization
I0906 17:37:27.348889  3398 net.cpp:476] bb-label-size-normalization <- bb-label
I0906 17:37:27.348894  3398 net.cpp:476] bb-label-size-normalization <- size-block_size-block_0_split_0
I0906 17:37:27.348899  3398 net.cpp:432] bb-label-size-normalization -> bb-label-sn
I0906 17:37:27.348907  3398 net.cpp:155] Setting up bb-label-size-normalization
I0906 17:37:27.348912  3398 net.cpp:163] Top shape: 24 4 120 160 (1843200)
I0906 17:37:27.348917  3398 layer_factory.hpp:76] Creating layer bb-label-num-pixel-normalization
I0906 17:37:27.348920  3398 net.cpp:110] Creating Layer bb-label-num-pixel-normalization
I0906 17:37:27.348925  3398 net.cpp:476] bb-label-num-pixel-normalization <- bb-label-sn
I0906 17:37:27.348929  3398 net.cpp:476] bb-label-num-pixel-normalization <- norm-block_norm-block_0_split_0
I0906 17:37:27.348934  3398 net.cpp:432] bb-label-num-pixel-normalization -> bb-label-sn-nn
I0906 17:37:27.348939  3398 net.cpp:155] Setting up bb-label-num-pixel-normalization
I0906 17:37:27.348944  3398 net.cpp:163] Top shape: 24 4 120 160 (1843200)
I0906 17:37:27.348948  3398 layer_factory.hpp:76] Creating layer L0
I0906 17:37:27.348956  3398 net.cpp:110] Creating Layer L0
I0906 17:37:27.348961  3398 net.cpp:476] L0 <- data
I0906 17:37:27.348966  3398 net.cpp:432] L0 -> L0
I0906 17:37:27.349351  3398 net.cpp:155] Setting up L0
I0906 17:37:27.349361  3398 net.cpp:163] Top shape: 24 96 118 158 (42955776)
I0906 17:37:27.349380  3398 layer_factory.hpp:76] Creating layer relu1
I0906 17:37:27.349387  3398 net.cpp:110] Creating Layer relu1
I0906 17:37:27.349391  3398 net.cpp:476] relu1 <- L0
I0906 17:37:27.349396  3398 net.cpp:419] relu1 -> L0 (in-place)
I0906 17:37:27.349406  3398 net.cpp:155] Setting up relu1
I0906 17:37:27.349411  3398 net.cpp:163] Top shape: 24 96 118 158 (42955776)
I0906 17:37:27.349414  3398 layer_factory.hpp:76] Creating layer norm1
I0906 17:37:27.349421  3398 net.cpp:110] Creating Layer norm1
I0906 17:37:27.349428  3398 net.cpp:476] norm1 <- L0
I0906 17:37:27.349433  3398 net.cpp:432] norm1 -> norm1
I0906 17:37:27.349442  3398 net.cpp:155] Setting up norm1
I0906 17:37:27.349447  3398 net.cpp:163] Top shape: 24 96 118 158 (42955776)
I0906 17:37:27.349450  3398 layer_factory.hpp:76] Creating layer pool1
I0906 17:37:27.349455  3398 net.cpp:110] Creating Layer pool1
I0906 17:37:27.349465  3398 net.cpp:476] pool1 <- norm1
I0906 17:37:27.349472  3398 net.cpp:432] pool1 -> pool1
I0906 17:37:27.349488  3398 net.cpp:155] Setting up pool1
I0906 17:37:27.349494  3398 net.cpp:163] Top shape: 24 96 59 79 (10738944)
I0906 17:37:27.349498  3398 layer_factory.hpp:76] Creating layer L1
I0906 17:37:27.349505  3398 net.cpp:110] Creating Layer L1
I0906 17:37:27.349509  3398 net.cpp:476] L1 <- pool1
I0906 17:37:27.349515  3398 net.cpp:432] L1 -> L1
I0906 17:37:27.355058  3398 net.cpp:155] Setting up L1
I0906 17:37:27.355079  3398 net.cpp:163] Top shape: 24 256 59 79 (28637184)
I0906 17:37:27.355089  3398 layer_factory.hpp:76] Creating layer relu2
I0906 17:37:27.355098  3398 net.cpp:110] Creating Layer relu2
I0906 17:37:27.355103  3398 net.cpp:476] relu2 <- L1
I0906 17:37:27.355108  3398 net.cpp:419] relu2 -> L1 (in-place)
I0906 17:37:27.355115  3398 net.cpp:155] Setting up relu2
I0906 17:37:27.355120  3398 net.cpp:163] Top shape: 24 256 59 79 (28637184)
I0906 17:37:27.355124  3398 layer_factory.hpp:76] Creating layer norm2
I0906 17:37:27.355130  3398 net.cpp:110] Creating Layer norm2
I0906 17:37:27.355135  3398 net.cpp:476] norm2 <- L1
I0906 17:37:27.355139  3398 net.cpp:432] norm2 -> norm2
I0906 17:37:27.355146  3398 net.cpp:155] Setting up norm2
I0906 17:37:27.355151  3398 net.cpp:163] Top shape: 24 256 59 79 (28637184)
I0906 17:37:27.355155  3398 layer_factory.hpp:76] Creating layer pool2
I0906 17:37:27.355160  3398 net.cpp:110] Creating Layer pool2
I0906 17:37:27.355165  3398 net.cpp:476] pool2 <- norm2
I0906 17:37:27.355170  3398 net.cpp:432] pool2 -> pool2
I0906 17:37:27.355186  3398 net.cpp:155] Setting up pool2
I0906 17:37:27.355192  3398 net.cpp:163] Top shape: 24 256 29 39 (6948864)
I0906 17:37:27.355196  3398 layer_factory.hpp:76] Creating layer L2
I0906 17:37:27.355203  3398 net.cpp:110] Creating Layer L2
I0906 17:37:27.355208  3398 net.cpp:476] L2 <- pool2
I0906 17:37:27.355214  3398 net.cpp:432] L2 -> L2
I0906 17:37:27.363019  3398 net.cpp:155] Setting up L2
I0906 17:37:27.363034  3398 net.cpp:163] Top shape: 24 384 29 39 (10423296)
I0906 17:37:27.363041  3398 layer_factory.hpp:76] Creating layer relu3
I0906 17:37:27.363049  3398 net.cpp:110] Creating Layer relu3
I0906 17:37:27.363054  3398 net.cpp:476] relu3 <- L2
I0906 17:37:27.363059  3398 net.cpp:419] relu3 -> L2 (in-place)
I0906 17:37:27.363065  3398 net.cpp:155] Setting up relu3
I0906 17:37:27.363068  3398 net.cpp:163] Top shape: 24 384 29 39 (10423296)
I0906 17:37:27.363072  3398 layer_factory.hpp:76] Creating layer L3
I0906 17:37:27.363078  3398 net.cpp:110] Creating Layer L3
I0906 17:37:27.363082  3398 net.cpp:476] L3 <- L2
I0906 17:37:27.363088  3398 net.cpp:432] L3 -> L3
I0906 17:37:27.374764  3398 net.cpp:155] Setting up L3
I0906 17:37:27.374783  3398 net.cpp:163] Top shape: 24 384 29 39 (10423296)
I0906 17:37:27.374790  3398 layer_factory.hpp:76] Creating layer relu4
I0906 17:37:27.374797  3398 net.cpp:110] Creating Layer relu4
I0906 17:37:27.374802  3398 net.cpp:476] relu4 <- L3
I0906 17:37:27.374807  3398 net.cpp:419] relu4 -> L3 (in-place)
I0906 17:37:27.374814  3398 net.cpp:155] Setting up relu4
I0906 17:37:27.374817  3398 net.cpp:163] Top shape: 24 384 29 39 (10423296)
I0906 17:37:27.374821  3398 layer_factory.hpp:76] Creating layer L4
I0906 17:37:27.374828  3398 net.cpp:110] Creating Layer L4
I0906 17:37:27.374833  3398 net.cpp:476] L4 <- L3
I0906 17:37:27.374837  3398 net.cpp:432] L4 -> L4
I0906 17:37:27.386502  3398 net.cpp:155] Setting up L4
I0906 17:37:27.386520  3398 net.cpp:163] Top shape: 24 384 29 39 (10423296)
I0906 17:37:27.386529  3398 layer_factory.hpp:76] Creating layer relu5
I0906 17:37:27.386536  3398 net.cpp:110] Creating Layer relu5
I0906 17:37:27.386549  3398 net.cpp:476] relu5 <- L4
I0906 17:37:27.386554  3398 net.cpp:419] relu5 -> L4 (in-place)
I0906 17:37:27.386560  3398 net.cpp:155] Setting up relu5
I0906 17:37:27.386565  3398 net.cpp:163] Top shape: 24 384 29 39 (10423296)
I0906 17:37:27.386569  3398 layer_factory.hpp:76] Creating layer pool5
I0906 17:37:27.386576  3398 net.cpp:110] Creating Layer pool5
I0906 17:37:27.386590  3398 net.cpp:476] pool5 <- L4
I0906 17:37:27.386596  3398 net.cpp:432] pool5 -> pool5
I0906 17:37:27.386605  3398 net.cpp:155] Setting up pool5
I0906 17:37:27.386610  3398 net.cpp:163] Top shape: 24 384 14 19 (2451456)
I0906 17:37:27.386613  3398 layer_factory.hpp:76] Creating layer L5
I0906 17:37:27.386621  3398 net.cpp:110] Creating Layer L5
I0906 17:37:27.386626  3398 net.cpp:476] L5 <- pool5
I0906 17:37:27.386631  3398 net.cpp:432] L5 -> L5
I0906 17:37:27.931907  3398 net.cpp:155] Setting up L5
I0906 17:37:27.931949  3398 net.cpp:163] Top shape: 24 4096 15 20 (29491200)
I0906 17:37:27.931960  3398 layer_factory.hpp:76] Creating layer relu6
I0906 17:37:27.931969  3398 net.cpp:110] Creating Layer relu6
I0906 17:37:27.931975  3398 net.cpp:476] relu6 <- L5
I0906 17:37:27.931982  3398 net.cpp:419] relu6 -> L5 (in-place)
I0906 17:37:27.931989  3398 net.cpp:155] Setting up relu6
I0906 17:37:27.931994  3398 net.cpp:163] Top shape: 24 4096 15 20 (29491200)
I0906 17:37:27.931999  3398 layer_factory.hpp:76] Creating layer drop6
I0906 17:37:27.932006  3398 net.cpp:110] Creating Layer drop6
I0906 17:37:27.932011  3398 net.cpp:476] drop6 <- L5
I0906 17:37:27.932015  3398 net.cpp:419] drop6 -> L5 (in-place)
I0906 17:37:27.932034  3398 net.cpp:155] Setting up drop6
I0906 17:37:27.932039  3398 net.cpp:163] Top shape: 24 4096 15 20 (29491200)
I0906 17:37:27.932044  3398 layer_factory.hpp:76] Creating layer L5_drop6_0_split
I0906 17:37:27.932049  3398 net.cpp:110] Creating Layer L5_drop6_0_split
I0906 17:37:27.932054  3398 net.cpp:476] L5_drop6_0_split <- L5
I0906 17:37:27.932060  3398 net.cpp:432] L5_drop6_0_split -> L5_drop6_0_split_0
I0906 17:37:27.932066  3398 net.cpp:432] L5_drop6_0_split -> L5_drop6_0_split_1
I0906 17:37:27.932072  3398 net.cpp:432] L5_drop6_0_split -> L5_drop6_0_split_2
I0906 17:37:27.932081  3398 net.cpp:155] Setting up L5_drop6_0_split
I0906 17:37:27.932086  3398 net.cpp:163] Top shape: 24 4096 15 20 (29491200)
I0906 17:37:27.932091  3398 net.cpp:163] Top shape: 24 4096 15 20 (29491200)
I0906 17:37:27.932096  3398 net.cpp:163] Top shape: 24 4096 15 20 (29491200)
I0906 17:37:27.932101  3398 layer_factory.hpp:76] Creating layer L6a
I0906 17:37:27.932107  3398 net.cpp:110] Creating Layer L6a
I0906 17:37:27.932111  3398 net.cpp:476] L6a <- L5_drop6_0_split_0
I0906 17:37:27.932117  3398 net.cpp:432] L6a -> L6a
I0906 17:37:28.091528  3398 net.cpp:155] Setting up L6a
I0906 17:37:28.091559  3398 net.cpp:163] Top shape: 24 4096 15 20 (29491200)
I0906 17:37:28.091570  3398 layer_factory.hpp:76] Creating layer relu7a
I0906 17:37:28.091579  3398 net.cpp:110] Creating Layer relu7a
I0906 17:37:28.091585  3398 net.cpp:476] relu7a <- L6a
I0906 17:37:28.091599  3398 net.cpp:419] relu7a -> L6a (in-place)
I0906 17:37:28.091614  3398 net.cpp:155] Setting up relu7a
I0906 17:37:28.091619  3398 net.cpp:163] Top shape: 24 4096 15 20 (29491200)
I0906 17:37:28.091622  3398 layer_factory.hpp:76] Creating layer drop7a
I0906 17:37:28.091629  3398 net.cpp:110] Creating Layer drop7a
I0906 17:37:28.091634  3398 net.cpp:476] drop7a <- L6a
I0906 17:37:28.091639  3398 net.cpp:419] drop7a -> L6a (in-place)
I0906 17:37:28.091645  3398 net.cpp:155] Setting up drop7a
I0906 17:37:28.091650  3398 net.cpp:163] Top shape: 24 4096 15 20 (29491200)
I0906 17:37:28.091653  3398 layer_factory.hpp:76] Creating layer L6b
I0906 17:37:28.091660  3398 net.cpp:110] Creating Layer L6b
I0906 17:37:28.091665  3398 net.cpp:476] L6b <- L5_drop6_0_split_1
I0906 17:37:28.091670  3398 net.cpp:432] L6b -> L6b
I0906 17:37:28.251109  3398 net.cpp:155] Setting up L6b
I0906 17:37:28.251143  3398 net.cpp:163] Top shape: 24 4096 15 20 (29491200)
I0906 17:37:28.251153  3398 layer_factory.hpp:76] Creating layer relu7b
I0906 17:37:28.251170  3398 net.cpp:110] Creating Layer relu7b
I0906 17:37:28.251178  3398 net.cpp:476] relu7b <- L6b
I0906 17:37:28.251183  3398 net.cpp:419] relu7b -> L6b (in-place)
I0906 17:37:28.251191  3398 net.cpp:155] Setting up relu7b
I0906 17:37:28.251196  3398 net.cpp:163] Top shape: 24 4096 15 20 (29491200)
I0906 17:37:28.251214  3398 layer_factory.hpp:76] Creating layer drop7b
I0906 17:37:28.251224  3398 net.cpp:110] Creating Layer drop7b
I0906 17:37:28.251227  3398 net.cpp:476] drop7b <- L6b
I0906 17:37:28.251232  3398 net.cpp:419] drop7b -> L6b (in-place)
I0906 17:37:28.251240  3398 net.cpp:155] Setting up drop7b
I0906 17:37:28.251245  3398 net.cpp:163] Top shape: 24 4096 15 20 (29491200)
I0906 17:37:28.251248  3398 layer_factory.hpp:76] Creating layer L6c
I0906 17:37:28.251255  3398 net.cpp:110] Creating Layer L6c
I0906 17:37:28.251260  3398 net.cpp:476] L6c <- L5_drop6_0_split_2
I0906 17:37:28.251266  3398 net.cpp:432] L6c -> L6c
I0906 17:37:28.406649  3398 net.cpp:155] Setting up L6c
I0906 17:37:28.406675  3398 net.cpp:163] Top shape: 24 4096 15 20 (29491200)
I0906 17:37:28.406688  3398 layer_factory.hpp:76] Creating layer relu7c
I0906 17:37:28.406697  3398 net.cpp:110] Creating Layer relu7c
I0906 17:37:28.406702  3398 net.cpp:476] relu7c <- L6c
I0906 17:37:28.406708  3398 net.cpp:419] relu7c -> L6c (in-place)
I0906 17:37:28.406716  3398 net.cpp:155] Setting up relu7c
I0906 17:37:28.406720  3398 net.cpp:163] Top shape: 24 4096 15 20 (29491200)
I0906 17:37:28.406724  3398 layer_factory.hpp:76] Creating layer drop7c
I0906 17:37:28.406731  3398 net.cpp:110] Creating Layer drop7c
I0906 17:37:28.406735  3398 net.cpp:476] drop7c <- L6c
I0906 17:37:28.406740  3398 net.cpp:419] drop7c -> L6c (in-place)
I0906 17:37:28.406746  3398 net.cpp:155] Setting up drop7c
I0906 17:37:28.406751  3398 net.cpp:163] Top shape: 24 4096 15 20 (29491200)
I0906 17:37:28.406754  3398 layer_factory.hpp:76] Creating layer bb-output
I0906 17:37:28.406761  3398 net.cpp:110] Creating Layer bb-output
I0906 17:37:28.406765  3398 net.cpp:476] bb-output <- L6a
I0906 17:37:28.406770  3398 net.cpp:432] bb-output -> bb-output
I0906 17:37:28.416070  3398 net.cpp:155] Setting up bb-output
I0906 17:37:28.416086  3398 net.cpp:163] Top shape: 24 256 15 20 (1843200)
I0906 17:37:28.416093  3398 layer_factory.hpp:76] Creating layer pixel-conv
I0906 17:37:28.416101  3398 net.cpp:110] Creating Layer pixel-conv
I0906 17:37:28.416107  3398 net.cpp:476] pixel-conv <- L6b
I0906 17:37:28.416115  3398 net.cpp:432] pixel-conv -> pixel-conv
I0906 17:37:28.420724  3398 net.cpp:155] Setting up pixel-conv
I0906 17:37:28.420734  3398 net.cpp:163] Top shape: 24 128 15 20 (921600)
I0906 17:37:28.420742  3398 layer_factory.hpp:76] Creating layer type-conv
I0906 17:37:28.420748  3398 net.cpp:110] Creating Layer type-conv
I0906 17:37:28.420753  3398 net.cpp:476] type-conv <- L6c
I0906 17:37:28.420758  3398 net.cpp:432] type-conv -> type-conv
I0906 17:37:28.457554  3398 net.cpp:155] Setting up type-conv
I0906 17:37:28.457582  3398 net.cpp:163] Top shape: 24 1024 15 20 (7372800)
I0906 17:37:28.457592  3398 layer_factory.hpp:76] Creating layer pixel-tile
I0906 17:37:28.457600  3398 net.cpp:110] Creating Layer pixel-tile
I0906 17:37:28.457607  3398 net.cpp:476] pixel-tile <- pixel-conv
I0906 17:37:28.457612  3398 net.cpp:432] pixel-tile -> pixel-conv-tiled
I0906 17:37:28.457626  3398 net.cpp:155] Setting up pixel-tile
I0906 17:37:28.457631  3398 net.cpp:163] Top shape: 24 2 120 160 (921600)
I0906 17:37:28.457635  3398 layer_factory.hpp:76] Creating layer bb-tile
I0906 17:37:28.457641  3398 net.cpp:110] Creating Layer bb-tile
I0906 17:37:28.457646  3398 net.cpp:476] bb-tile <- bb-output
I0906 17:37:28.457651  3398 net.cpp:432] bb-tile -> bb-output-tiled
I0906 17:37:28.457657  3398 net.cpp:155] Setting up bb-tile
I0906 17:37:28.457662  3398 net.cpp:163] Top shape: 24 4 120 160 (1843200)
I0906 17:37:28.457665  3398 layer_factory.hpp:76] Creating layer type-tile
I0906 17:37:28.457670  3398 net.cpp:110] Creating Layer type-tile
I0906 17:37:28.457684  3398 net.cpp:476] type-tile <- type-conv
I0906 17:37:28.457690  3398 net.cpp:432] type-tile -> type-conv-tiled
I0906 17:37:28.457695  3398 net.cpp:155] Setting up type-tile
I0906 17:37:28.457700  3398 net.cpp:163] Top shape: 24 64 60 80 (7372800)
I0906 17:37:28.457705  3398 layer_factory.hpp:76] Creating layer pixel-loss
I0906 17:37:28.457710  3398 net.cpp:110] Creating Layer pixel-loss
I0906 17:37:28.457727  3398 net.cpp:476] pixel-loss <- pixel-conv-tiled
I0906 17:37:28.457732  3398 net.cpp:476] pixel-loss <- pixel-label_slice-label_0_split_4
I0906 17:37:28.457737  3398 net.cpp:432] pixel-loss -> pixel-loss
I0906 17:37:28.457746  3398 layer_factory.hpp:76] Creating layer pixel-loss
…
I0906 17:37:28.474609  3398 net.cpp:50] Initializing net from parameters: 
name: "VPGNet-noVP"
state {
  phase: TEST
}
layer {
  name: "data"
  type: "DriveData"
  top: "data"
  top: "label"
  top: "type"
  include {
    phase: TEST
  }
  transform_param {
    mean_file: "./driving_mean_train.binaryproto"
  }
  data_param {
    source: "./LMDB_test"
    batch_size: 10
    backend: LMDB
  }
  drive_data_param {
    shrink_prob_factor: 1
    unrecognize_factor: 0
    crop_num: 1
    random_crop_ratio: 1
    resize: 1
    scale: 1
    catalog_resolution: 4
    reco_min: 4
    train_min: 4
  }
}
layer {
  name: "slice-label"
  type: "Slice"
  bottom: "label"
  top: "pixel-label"
  top: "bb-label"
  top: "size-label"
  top: "norm-label"
  slice_param {
    slice_dim: 1
    slice_point: 1
    slice_point: 5
    slice_point: 7
  }
}
layer {
  name: "pixel-block"
  type: "Concat"
  bottom: "pixel-label"
  bottom: "pixel-label"
  bottom: "pixel-label"
  bottom: "pixel-label"
  top: "pixel-block"
  concat_param {
    concat_dim: 1
  }
}
layer {
  name: "size-block"
  type: "Concat"
  bottom: "size-label"
  bottom: "size-label"
  top: "size-block"
  concat_param {
    concat_dim: 1
  }
}
layer {
  name: "norm-block"
  type: "Concat"
  bottom: "norm-label"
  bottom: "norm-label"
  bottom: "norm-label"
  bottom: "norm-label"
  top: "norm-block"
  concat_param {
    concat_dim: 1
  }
}
layer {
  name: "bb-label-size-normalization"
  type: "Eltwise"
  bottom: "bb-label"
  bottom: "size-block"
  top: "bb-label-sn"
  eltwise_param {
    operation: PROD
  }
}
layer {
  name: "bb-label-num-pixel-normalization"
  type: "Eltwise"
  bottom: "bb-label-sn"
  bottom: "norm-block"
  top: "bb-label-sn-nn"
  eltwise_param {
    operation: PROD
  }
}
layer {
  name: "L0"
  type: "Convolution"
  bottom: "data"
  top: "L0"
  param {
    lr_mult: 1
    decay_mult: 1
  }
  param {
    lr_mult: 2
    decay_mult: 0
  }
  convolution_param {
    num_output: 96
    kernel_size: 11
    stride: 4
    weight_filler {
      type: "gaussian"
      std: 0.01
    }
    bias_filler {
      type: "constant"
      value: 1
    }
  }
}
layer {
  name: "relu1"
  type: "ReLU"
  bottom: "L0"
  top: "L0"
}
layer {
  name: "norm1"
  type: "LRN"
  bottom: "L0"
  top: "norm1"
  lrn_param {
    local_size: 5
    alpha: 0.0005
    beta: 0.75
    k: 2
  }
}
layer {
  name: "pool1"
  type: "Pooling"
  bottom: "norm1"
  top: "pool1"
  pooling_param {
    pool: MAX
    kernel_size: 3
    stride: 2
  }
}
layer {
  name: "L1"
  type: "Convolution"
  bottom: "pool1"
  top: "L1"
  param {
    lr_mult: 1
    decay_mult: 1
  }
  param {
    lr_mult: 2
    decay_mult: 0
  }
  convolution_param {
    num_output: 256
    pad: 2
    kernel_size: 5
    group: 1
    weight_filler {
      type: "gaussian"
      std: 0.01
    }
    bias_filler {
      type: "constant"
      value: 1
    }
  }
}
layer {
  name: "relu2"
  type: "ReLU"
  bottom: "L1"
  top: "L1"
}
layer {
  name: "norm2"
  type: "LRN"
  bottom: "L1"
  top: "norm2"
  lrn_param {
    local_size: 5
    alpha: 0.0005
    beta: 0.75
    k: 8
  }
}
layer {
  name: "pool2"
  type: "Pooling"
  bottom: "norm2"
  top: "pool2"
  pooling_param {
    pool: MAX
    kernel_size: 3
    stride: 2
  }
}
layer {
  name: "L2"
  type: "Convolution"
  bottom: "pool2"
  top: "L2"
  param {
    lr_mult: 1
    decay_mult: 1
  }
  param {
    lr_mult: 2
    decay_mult: 0
  }
  convolution_param {
    num_output: 384
    pad: 1
    kernel_size: 3
    weight_filler {
      type: "gaussian"
      std: 0.01
    }
    bias_filler {
      type: "constant"
      value: 0.1
    }
  }
}
layer {
  name: "relu3"
  type: "ReLU"
  bottom: "L2"
  top: "L2"
}
layer {
  name: "L3"
  type: "Convolution"
  bottom: "L2"
  top: "L3"
  param {
    lr_mult: 1
    decay_mult: 1
  }
  param {
    lr_mult: 2
    decay_mult: 0
  }
  convolution_param {
    num_output: 384
    pad: 1
    kernel_size: 3
    group: 1
    weight_filler {
      type: "gaussian"
      std: 0.01
    }
    bias_filler {
      type: "constant"
      value: 0.1
    }
  }
}
layer {
  name: "relu4"
  type: "ReLU"
  bottom: "L3"
  top: "L3"
}
layer {
  name: "L4"
  type: "Convolution"
  bottom: "L3"
  top: "L4"
  param {
    lr_mult: 1
    decay_mult: 1
  }
  param {
    lr_mult: 2
    decay_mult: 0
  }
  convolution_param {
    num_output: 384
    pad: 1
    kernel_size: 3
    group: 1
    weight_filler {
      type: "gaussian"
      std: 0.01
    }
    bias_filler {
      type: "constant"
      value: 0.1
    }
  }
}
layer {
  name: "relu5"
  type: "ReLU"
  bottom: "L4"
  top: "L4"
}
layer {
  name: "pool5"
  type: "Pooling"
  bottom: "L4"
  top: "pool5"
  pooling_param {
    pool: MAX
    kernel_size: 3
    stride: 2
  }
}
layer {
  name: "L5"
  type: "Convolution"
  bottom: "pool5"
  top: "L5"
  param {
    lr_mult: 1
    decay_mult: 1
  }
  param {
    lr_mult: 2
    decay_mult: 0
  }
  convolution_param {
    num_output: 4096
    pad: 3
    kernel_size: 6
    weight_filler {
      type: "gaussian"
      std: 0.01
    }
    bias_filler {
      type: "constant"
      value: 1
    }
  }
}
layer {
  name: "relu6"
  type: "ReLU"
  bottom: "L5"
  top: "L5"
}
layer {
  name: "drop6"
  type: "Dropout"
  bottom: "L5"
  top: "L5"
  dropout_param {
    dropout_ratio: 0.5
  }
}
layer {
  name: "L6a"
  type: "Convolution"
  bottom: "L5"
  top: "L6a"
  param {
    lr_mult: 5
    decay_mult: 0.1
  }
  param {
    lr_mult: 2
    decay_mult: 0
  }
  convolution_param {
    num_output: 4096
    kernel_size: 1
    weight_filler {
      type: "gaussian"
      std: 0.01
    }
    bias_filler {
      type: "constant"
      value: 1
    }
  }
}
layer {
  name: "relu7a"
  type: "ReLU"
  bottom: "L6a"
  top: "L6a"
}
layer {
  name: "drop7a"
  type: "Dropout"
  bottom: "L6a"
  top: "L6a"
  dropout_param {
    dropout_ratio: 0.5
  }
}
layer {
  name: "L6b"
  type: "Convolution"
  bottom: "L5"
  top: "L6b"
  param {
    lr_mult: 5
    decay_mult: 0.1
  }
  param {
    lr_mult: 2
    decay_mult: 0
  }
  convolution_param {
    num_output: 4096
    kernel_size: 1
    weight_filler {
      type: "gaussian"
      std: 0.01
    }
    bias_filler {
      type: "constant"
      value: 1
    }
  }
}
layer {
  name: "relu7b"
  type: "ReLU"
  bottom: "L6b"
  top: "L6b"
}
layer {
  name: "drop7b"
  type: "Dropout"
  bottom: "L6b"
  top: "L6b"
  dropout_param {
    dropout_ratio: 0.5
  }
}
layer {
  name: "L6c"
  type: "Convolution"
  bottom: "L5"
  top: "L6c"
  param {
    lr_mult: 5
    decay_mult: 0.1
  }
  param {
    lr_mult: 2
    decay_mult: 0
  }
  convolution_param {
    num_output: 4096
    kernel_size: 1
    weight_filler {
      type: "gaussian"
      std: 0.01
    }
    bias_filler {
      type: "constant"
      value: 1
    }
  }
}
layer {
  name: "relu7c"
  type: "ReLU"
  bottom: "L6c"
  top: "L6c"
}
layer {
  name: "drop7c"
  type: "Dropout"
  bottom: "L6c"
  top: "L6c"
  dropout_param {
    dropout_ratio: 0.5
  }
}
layer {
  name: "bb-output"
  type: "Convolution"
  bottom: "L6a"
  top: "bb-output"
  param {
    lr_mult: 20
    decay_mult: 0.1
  }
  param {
    lr_mult: 20
    decay_mult: 0
  }
  convolution_param {
    num_output: 256
    kernel_size: 1
    weight_filler {
      type: "gaussian"
      std: 0.01
    }
    bias_filler {
      type: "constant"
      value: 0
    }
  }
}
layer {
  name: "pixel-conv"
  type: "Convolution"
  bottom: "L6b"
  top: "pixel-conv"
  param {
    lr_mult: 1
    decay_mult: 1
  }
  param {
    lr_mult: 2
    decay_mult: 0
  }
  convolution_param {
    num_output: 128
    kernel_size: 1
    weight_filler {
      type: "gaussian"
      std: 0.01
    }
    bias_filler {
      type: "constant"
      value: 0
    }
  }
}
layer {
  name: "type-conv"
  type: "Convolution"
  bottom: "L6c"
  top: "type-conv"
  param {
    lr_mult: 1
    decay_mult: 1
  }
  param {
    lr_mult: 2
    decay_mult: 0
  }
  convolution_param {
    num_output: 1024
    kernel_size: 1
    weight_filler {
      type: "gaussian"
      std: 0.01
    }
    bias_filler {
      type: "constant"
      value: 0
    }
  }
}
layer {
  name: "pixel-tile"
  type: "Tiling"
  bottom: "pixel-conv"
  top: "pixel-conv-tiled"
  tiling_param {
    tile_dim: 8
  }
}
layer {
  name: "bb-tile"
  type: "Tiling"
  bottom: "bb-output"
  top: "bb-output-tiled"
  tiling_param {
    tile_dim: 8
  }
}
layer {
  name: "type-tile"
  type: "Tiling"
  bottom: "type-conv"
  top: "type-conv-tiled"
  tiling_param {
    tile_dim: 4
  }
}
layer {
  name: "pixel-loss"
  type: "SoftmaxWithLoss"
  bottom: "pixel-conv-tiled"
  bottom: "pixel-label"
  top: "pixel-loss"
  loss_weight: 1
}
layer {
  name: "pixel-acc"
  type: "Accuracy"
  bottom: "pixel-conv-tiled"
  bottom: "pixel-label"
  top: "pixel-acc"
  include {
    phase: TEST
  }
}
layer {
  name: "type-loss"
  type: "SoftmaxWithLoss"
  bottom: "type-conv-tiled"
  bottom: "type"
  top: "type-loss"
  loss_weight: 1
}
layer {
  name: "type-acc"
  type: "Accuracy"
  bottom: "type-conv-tiled"
  bottom: "type"
  top: "type-acc"
  include {
    phase: TEST
  }
}
layer {
  name: "bb-prob-mask"
  type: "Eltwise"
  bottom: "bb-output-tiled"
  bottom: "pixel-block"
  top: "bb-masked-output"
  eltwise_param {
    operation: PROD
  }
}
layer {
  name: "bb-size-normalization"
  type: "Eltwise"
  bottom: "bb-masked-output"
  bottom: "size-block"
  top: "bb-masked-output-sn"
  eltwise_param {
    operation: PROD
  }
}
layer {
  name: "bb-num-pixel-normalization"
  type: "Eltwise"
  bottom: "bb-masked-output-sn"
  bottom: "norm-block"
  top: "bb-masked-output-sn-nn"
  eltwise_param {
    operation: PROD
  }
}
layer {
  name: "bb-loss"
  type: "L1Loss"
  bottom: "bb-masked-output-sn-nn"
  bottom: "bb-label-sn-nn"
  top: "bb-loss"
  loss_weight: 3
}
I0906 17:37:28.474764  3398 layer_factory.hpp:76] Creating layer data
I0906 17:37:28.474829  3398 net.cpp:110] Creating Layer data
I0906 17:37:28.474838  3398 net.cpp:432] data -> data
I0906 17:37:28.474845  3398 net.cpp:432] data -> label
I0906 17:37:28.474853  3398 net.cpp:432] data -> type
I0906 17:37:28.474858  3398 data_transformer.cpp:23] Loading mean file from: ./driving_mean_train.binaryproto
I0906 17:37:28.475452  3417 db_lmdb.cpp:22] Opened lmdb ./LMDB_test
I0906 17:37:28.483217  3398 drive_data_layer.cpp:49] output data size: 10,3,480,640
I0906 17:37:28.528920  3398 net.cpp:155] Setting up data
I0906 17:37:28.528960  3398 net.cpp:163] Top shape: 10 3 480 640 (9216000)
I0906 17:37:28.528965  3398 net.cpp:163] Top shape: 10 8 120 160 (1536000)
I0906 17:37:28.528970  3398 net.cpp:163] Top shape: 10 1 60 80 (48000)
I0906 17:37:28.528976  3398 layer_factory.hpp:76] Creating layer type_data_2_split
I0906 17:37:28.528990  3398 net.cpp:110] Creating Layer type_data_2_split
I0906 17:37:28.528995  3398 net.cpp:476] type_data_2_split <- type
I0906 17:37:28.529001  3398 net.cpp:432] type_data_2_split -> type_data_2_split_0
I0906 17:37:28.529011  3398 net.cpp:432] type_data_2_split -> type_data_2_split_1
I0906 17:37:28.529018  3398 net.cpp:155] Setting up type_data_2_split
I0906 17:37:28.529023  3398 net.cpp:163] Top shape: 10 1 60 80 (48000)
I0906 17:37:28.529028  3398 net.cpp:163] Top shape: 10 1 60 80 (48000)
I0906 17:37:28.529031  3398 layer_factory.hpp:76] Creating layer slice-label
I0906 17:37:28.529039  3398 net.cpp:110] Creating Layer slice-label
I0906 17:37:28.529043  3398 net.cpp:476] slice-label <- label
I0906 17:37:28.529048  3398 net.cpp:432] slice-label -> pixel-label
I0906 17:37:28.529054  3398 net.cpp:432] slice-label -> bb-label
I0906 17:37:28.529060  3398 net.cpp:432] slice-label -> size-label
I0906 17:37:28.529065  3398 net.cpp:432] slice-label -> norm-label
I0906 17:37:28.529074  3398 net.cpp:155] Setting up slice-label
I0906 17:37:28.529080  3398 net.cpp:163] Top shape: 10 1 120 160 (192000)
I0906 17:37:28.529084  3398 net.cpp:163] Top shape: 10 4 120 160 (768000)
I0906 17:37:28.529089  3398 net.cpp:163] Top shape: 10 2 120 160 (384000)
I0906 17:37:28.529101  3398 net.cpp:163] Top shape: 10 1 120 160 (192000)
I0906 17:37:28.529105  3398 layer_factory.hpp:76] Creating layer pixel-label_slice-label_0_split
I0906 17:37:28.529111  3398 net.cpp:110] Creating Layer pixel-label_slice-label_0_split
I0906 17:37:28.529115  3398 net.cpp:476] pixel-label_slice-label_0_split <- pixel-label
I0906 17:37:28.529146  3398 net.cpp:432] pixel-label_slice-label_0_split -> pixel-label_slice-label_0_split_0
I0906 17:37:28.529153  3398 net.cpp:432] pixel-label_slice-label_0_split -> pixel-label_slice-label_0_split_1
I0906 17:37:28.529160  3398 net.cpp:432] pixel-label_slice-label_0_split -> pixel-label_slice-label_0_split_2
I0906 17:37:28.529165  3398 net.cpp:432] pixel-label_slice-label_0_split -> pixel-label_slice-label_0_split_3
I0906 17:37:28.529183  3398 net.cpp:432] pixel-label_slice-label_0_split -> pixel-label_slice-label_0_split_4
I0906 17:37:28.529188  3398 net.cpp:432] pixel-label_slice-label_0_split -> pixel-label_slice-label_0_split_5
I0906 17:37:28.529194  3398 net.cpp:155] Setting up pixel-label_slice-label_0_split
I0906 17:37:28.529199  3398 net.cpp:163] Top shape: 10 1 120 160 (192000)
I0906 17:37:28.529204  3398 net.cpp:163] Top shape: 10 1 120 160 (192000)
I0906 17:37:28.529208  3398 net.cpp:163] Top shape: 10 1 120 160 (192000)
I0906 17:37:28.529212  3398 net.cpp:163] Top shape: 10 1 120 160 (192000)
I0906 17:37:28.529217  3398 net.cpp:163] Top shape: 10 1 120 160 (192000)
I0906 17:37:28.529222  3398 net.cpp:163] Top shape: 10 1 120 160 (192000)
I0906 17:37:28.529225  3398 layer_factory.hpp:76] Creating layer size-label_slice-label_2_split
I0906 17:37:28.529229  3398 net.cpp:110] Creating Layer size-label_slice-label_2_split
I0906 17:37:28.529233  3398 net.cpp:476] size-label_slice-label_2_split <- size-label
I0906 17:37:28.529238  3398 net.cpp:432] size-label_slice-label_2_split -> size-label_slice-label_2_split_0
I0906 17:37:28.529244  3398 net.cpp:432] size-label_slice-label_2_split -> size-label_slice-label_2_split_1
I0906 17:37:28.529250  3398 net.cpp:155] Setting up size-label_slice-label_2_split
I0906 17:37:28.529254  3398 net.cpp:163] Top shape: 10 2 120 160 (384000)
I0906 17:37:28.529259  3398 net.cpp:163] Top shape: 10 2 120 160 (384000)
I0906 17:37:28.529263  3398 layer_factory.hpp:76] Creating layer norm-label_slice-label_3_split
I0906 17:37:28.529268  3398 net.cpp:110] Creating Layer norm-label_slice-label_3_split
I0906 17:37:28.529271  3398 net.cpp:476] norm-label_slice-label_3_split <- norm-label
I0906 17:37:28.529276  3398 net.cpp:432] norm-label_slice-label_3_split -> norm-label_slice-label_3_split_0
I0906 17:37:28.529283  3398 net.cpp:432] norm-label_slice-label_3_split -> norm-label_slice-label_3_split_1
I0906 17:37:28.529287  3398 net.cpp:432] norm-label_slice-label_3_split -> norm-label_slice-label_3_split_2
I0906 17:37:28.529292  3398 net.cpp:432] norm-label_slice-label_3_split -> norm-label_slice-label_3_split_3
I0906 17:37:28.529299  3398 net.cpp:155] Setting up norm-label_slice-label_3_split
I0906 17:37:28.529304  3398 net.cpp:163] Top shape: 10 1 120 160 (192000)
I0906 17:37:28.529307  3398 net.cpp:163] Top shape: 10 1 120 160 (192000)
I0906 17:37:28.529311  3398 net.cpp:163] Top shape: 10 1 120 160 (192000)
I0906 17:37:28.529315  3398 net.cpp:163] Top shape: 10 1 120 160 (192000)
I0906 17:37:28.529320  3398 layer_factory.hpp:76] Creating layer pixel-block
I0906 17:37:28.529325  3398 net.cpp:110] Creating Layer pixel-block
I0906 17:37:28.529330  3398 net.cpp:476] pixel-block <- pixel-label_slice-label_0_split_0
I0906 17:37:28.529333  3398 net.cpp:476] pixel-block <- pixel-label_slice-label_0_split_1
I0906 17:37:28.529338  3398 net.cpp:476] pixel-block <- pixel-label_slice-label_0_split_2
I0906 17:37:28.529342  3398 net.cpp:476] pixel-block <- pixel-label_slice-label_0_split_3
I0906 17:37:28.529347  3398 net.cpp:432] pixel-block -> pixel-block
I0906 17:37:28.529353  3398 net.cpp:155] Setting up pixel-block
I0906 17:37:28.529358  3398 net.cpp:163] Top shape: 10 4 120 160 (768000)
I0906 17:37:28.529362  3398 layer_factory.hpp:76] Creating layer size-block
I0906 17:37:28.529371  3398 net.cpp:110] Creating Layer size-block
I0906 17:37:28.529374  3398 net.cpp:476] size-block <- size-label_slice-label_2_split_0
I0906 17:37:28.529378  3398 net.cpp:476] size-block <- size-label_slice-label_2_split_1
I0906 17:37:28.529383  3398 net.cpp:432] size-block -> size-block
I0906 17:37:28.529407  3398 net.cpp:155] Setting up size-block
I0906 17:37:28.529413  3398 net.cpp:163] Top shape: 10 4 120 160 (768000)
I0906 17:37:28.529417  3398 layer_factory.hpp:76] Creating layer size-block_size-block_0_split
I0906 17:37:28.529422  3398 net.cpp:110] Creating Layer size-block_size-block_0_split
I0906 17:37:28.529426  3398 net.cpp:476] size-block_size-block_0_split <- size-block
I0906 17:37:28.529431  3398 net.cpp:432] size-block_size-block_0_split -> size-block_size-block_0_split_0
I0906 17:37:28.529438  3398 net.cpp:432] size-block_size-block_0_split -> size-block_size-block_0_split_1
I0906 17:37:28.529443  3398 net.cpp:155] Setting up size-block_size-block_0_split
I0906 17:37:28.529448  3398 net.cpp:163] Top shape: 10 4 120 160 (768000)
I0906 17:37:28.529453  3398 net.cpp:163] Top shape: 10 4 120 160 (768000)
I0906 17:37:28.529456  3398 layer_factory.hpp:76] Creating layer norm-block
I0906 17:37:28.529461  3398 net.cpp:110] Creating Layer norm-block
I0906 17:37:28.529465  3398 net.cpp:476] norm-block <- norm-label_slice-label_3_split_0
I0906 17:37:28.529469  3398 net.cpp:476] norm-block <- norm-label_slice-label_3_split_1
I0906 17:37:28.529474  3398 net.cpp:476] norm-block <- norm-label_slice-label_3_split_2
I0906 17:37:28.529479  3398 net.cpp:476] norm-block <- norm-label_slice-label_3_split_3
I0906 17:37:28.529495  3398 net.cpp:432] norm-block -> norm-block
I0906 17:37:28.529500  3398 net.cpp:155] Setting up norm-block
I0906 17:37:28.529505  3398 net.cpp:163] Top shape: 10 4 120 160 (768000)
I0906 17:37:28.529510  3398 layer_factory.hpp:76] Creating layer norm-block_norm-block_0_split
I0906 17:37:28.529515  3398 net.cpp:110] Creating Layer norm-block_norm-block_0_split
I0906 17:37:28.529518  3398 net.cpp:476] norm-block_norm-block_0_split <- norm-block
I0906 17:37:28.529523  3398 net.cpp:432] norm-block_norm-block_0_split -> norm-block_norm-block_0_split_0
I0906 17:37:28.529528  3398 net.cpp:432] norm-block_norm-block_0_split -> norm-block_norm-block_0_split_1
I0906 17:37:28.529534  3398 net.cpp:155] Setting up norm-block_norm-block_0_split
I0906 17:37:28.529538  3398 net.cpp:163] Top shape: 10 4 120 160 (768000)
I0906 17:37:28.529543  3398 net.cpp:163] Top shape: 10 4 120 160 (768000)
I0906 17:37:28.529546  3398 layer_factory.hpp:76] Creating layer bb-label-size-normalization
I0906 17:37:28.529552  3398 net.cpp:110] Creating Layer bb-label-size-normalization
I0906 17:37:28.529556  3398 net.cpp:476] bb-label-size-normalization <- bb-label
I0906 17:37:28.529563  3398 net.cpp:476] bb-label-size-normalization <- size-block_size-block_0_split_0
I0906 17:37:28.529569  3398 net.cpp:432] bb-label-size-normalization -> bb-label-sn
I0906 17:37:28.529577  3398 net.cpp:155] Setting up bb-label-size-normalization
I0906 17:37:28.529582  3398 net.cpp:163] Top shape: 10 4 120 160 (768000)
I0906 17:37:28.529584  3398 layer_factory.hpp:76] Creating layer bb-label-num-pixel-normalization
I0906 17:37:28.529589  3398 net.cpp:110] Creating Layer bb-label-num-pixel-normalization
I0906 17:37:28.529593  3398 net.cpp:476] bb-label-num-pixel-normalization <- bb-label-sn
I0906 17:37:28.529597  3398 net.cpp:476] bb-label-num-pixel-normalization <- norm-block_norm-block_0_split_0
I0906 17:37:28.529603  3398 net.cpp:432] bb-label-num-pixel-normalization -> bb-label-sn-nn
I0906 17:37:28.529608  3398 net.cpp:155] Setting up bb-label-num-pixel-normalization
I0906 17:37:28.529613  3398 net.cpp:163] Top shape: 10 4 120 160 (768000)
I0906 17:37:28.529615  3398 layer_factory.hpp:76] Creating layer L0
I0906 17:37:28.529623  3398 net.cpp:110] Creating Layer L0
I0906 17:37:28.529628  3398 net.cpp:476] L0 <- data
I0906 17:37:28.529633  3398 net.cpp:432] L0 -> L0
I0906 17:37:28.529927  3398 net.cpp:155] Setting up L0
I0906 17:37:28.529937  3398 net.cpp:163] Top shape: 10 96 118 158 (17898240)
I0906 17:37:28.529944  3398 layer_factory.hpp:76] Creating layer relu1
I0906 17:37:28.529951  3398 net.cpp:110] Creating Layer relu1
I0906 17:37:28.529955  3398 net.cpp:476] relu1 <- L0
I0906 17:37:28.529960  3398 net.cpp:419] relu1 -> L0 (in-place)
I0906 17:37:28.529973  3398 net.cpp:155] Setting up relu1
I0906 17:37:28.529978  3398 net.cpp:163] Top shape: 10 96 118 158 (17898240)
I0906 17:37:28.529983  3398 layer_factory.hpp:76] Creating layer norm1
I0906 17:37:28.529987  3398 net.cpp:110] Creating Layer norm1
I0906 17:37:28.529991  3398 net.cpp:476] norm1 <- L0
I0906 17:37:28.529996  3398 net.cpp:432] norm1 -> norm1
I0906 17:37:28.530004  3398 net.cpp:155] Setting up norm1
I0906 17:37:28.530009  3398 net.cpp:163] Top shape: 10 96 118 158 (17898240)
I0906 17:37:28.530012  3398 layer_factory.hpp:76] Creating layer pool1
I0906 17:37:28.530019  3398 net.cpp:110] Creating Layer pool1
I0906 17:37:28.530022  3398 net.cpp:476] pool1 <- norm1
I0906 17:37:28.530027  3398 net.cpp:432] pool1 -> pool1
I0906 17:37:28.530036  3398 net.cpp:155] Setting up pool1
I0906 17:37:28.530041  3398 net.cpp:163] Top shape: 10 96 59 79 (4474560)
I0906 17:37:28.530045  3398 layer_factory.hpp:76] Creating layer L1
I0906 17:37:28.530050  3398 net.cpp:110] Creating Layer L1
I0906 17:37:28.530055  3398 net.cpp:476] L1 <- pool1
I0906 17:37:28.530059  3398 net.cpp:432] L1 -> L1
I0906 17:37:28.535037  3398 net.cpp:155] Setting up L1
I0906 17:37:28.535063  3398 net.cpp:163] Top shape: 10 256 59 79 (11932160)
I0906 17:37:28.535074  3398 layer_factory.hpp:76] Creating layer relu2
I0906 17:37:28.535084  3398 net.cpp:110] Creating Layer relu2
I0906 17:37:28.535089  3398 net.cpp:476] relu2 <- L1
I0906 17:37:28.535095  3398 net.cpp:419] relu2 -> L1 (in-place)
I0906 17:37:28.535104  3398 net.cpp:155] Setting up relu2
I0906 17:37:28.535109  3398 net.cpp:163] Top shape: 10 256 59 79 (11932160)
I0906 17:37:28.535112  3398 layer_factory.hpp:76] Creating layer norm2
I0906 17:37:28.535118  3398 net.cpp:110] Creating Layer norm2
I0906 17:37:28.535122  3398 net.cpp:476] norm2 <- L1
I0906 17:37:28.535127  3398 net.cpp:432] norm2 -> norm2
I0906 17:37:28.535135  3398 net.cpp:155] Setting up norm2
I0906 17:37:28.535140  3398 net.cpp:163] Top shape: 10 256 59 79 (11932160)
I0906 17:37:28.535143  3398 layer_factory.hpp:76] Creating layer pool2
I0906 17:37:28.535149  3398 net.cpp:110] Creating Layer pool2
I0906 17:37:28.535153  3398 net.cpp:476] pool2 <- norm2
I0906 17:37:28.535159  3398 net.cpp:432] pool2 -> pool2
I0906 17:37:28.535167  3398 net.cpp:155] Setting up pool2
I0906 17:37:28.535172  3398 net.cpp:163] Top shape: 10 256 29 39 (2895360)
I0906 17:37:28.535176  3398 layer_factory.hpp:76] Creating layer L2
I0906 17:37:28.535182  3398 net.cpp:110] Creating Layer L2
I0906 17:37:28.535187  3398 net.cpp:476] L2 <- pool2
I0906 17:37:28.535192  3398 net.cpp:432] L2 -> L2
I0906 17:37:28.543259  3398 net.cpp:155] Setting up L2
I0906 17:37:28.543283  3398 net.cpp:163] Top shape: 10 384 29 39 (4343040)
I0906 17:37:28.543293  3398 layer_factory.hpp:76] Creating layer relu3
I0906 17:37:28.543303  3398 net.cpp:110] Creating Layer relu3
I0906 17:37:28.543309  3398 net.cpp:476] relu3 <- L2
I0906 17:37:28.543315  3398 net.cpp:419] relu3 -> L2 (in-place)
I0906 17:37:28.543323  3398 net.cpp:155] Setting up relu3
I0906 17:37:28.543328  3398 net.cpp:163] Top shape: 10 384 29 39 (4343040)
I0906 17:37:28.543331  3398 layer_factory.hpp:76] Creating layer L3
I0906 17:37:28.543339  3398 net.cpp:110] Creating Layer L3
I0906 17:37:28.543342  3398 net.cpp:476] L3 <- L2
I0906 17:37:28.543349  3398 net.cpp:432] L3 -> L3
I0906 17:37:28.555977  3398 net.cpp:155] Setting up L3
I0906 17:37:28.556020  3398 net.cpp:163] Top shape: 10 384 29 39 (4343040)
I0906 17:37:28.556030  3398 layer_factory.hpp:76] Creating layer relu4
I0906 17:37:28.556041  3398 net.cpp:110] Creating Layer relu4
I0906 17:37:28.556047  3398 net.cpp:476] relu4 <- L3
I0906 17:37:28.556053  3398 net.cpp:419] relu4 -> L3 (in-place)
I0906 17:37:28.556067  3398 net.cpp:155] Setting up relu4
I0906 17:37:28.556072  3398 net.cpp:163] Top shape: 10 384 29 39 (4343040)
I0906 17:37:28.556077  3398 layer_factory.hpp:76] Creating layer L4
I0906 17:37:28.556085  3398 net.cpp:110] Creating Layer L4
I0906 17:37:28.556089  3398 net.cpp:476] L4 <- L3
I0906 17:37:28.556094  3398 net.cpp:432] L4 -> L4
I0906 17:37:28.568717  3398 net.cpp:155] Setting up L4
I0906 17:37:28.568747  3398 net.cpp:163] Top shape: 10 384 29 39 (4343040)
I0906 17:37:28.568758  3398 layer_factory.hpp:76] Creating layer relu5
I0906 17:37:28.568766  3398 net.cpp:110] Creating Layer relu5
I0906 17:37:28.568773  3398 net.cpp:476] relu5 <- L4
I0906 17:37:28.568778  3398 net.cpp:419] relu5 -> L4 (in-place)
I0906 17:37:28.568786  3398 net.cpp:155] Setting up relu5
I0906 17:37:28.568791  3398 net.cpp:163] Top shape: 10 384 29 39 (4343040)
I0906 17:37:28.568795  3398 layer_factory.hpp:76] Creating layer pool5
I0906 17:37:28.568804  3398 net.cpp:110] Creating Layer pool5
I0906 17:37:28.568807  3398 net.cpp:476] pool5 <- L4
I0906 17:37:28.568814  3398 net.cpp:432] pool5 -> pool5
I0906 17:37:28.568821  3398 net.cpp:155] Setting up pool5
I0906 17:37:28.568826  3398 net.cpp:163] Top shape: 10 384 14 19 (1021440)
I0906 17:37:28.568830  3398 layer_factory.hpp:76] Creating layer L5
I0906 17:37:28.568838  3398 net.cpp:110] Creating Layer L5
I0906 17:37:28.568843  3398 net.cpp:476] L5 <- pool5
I0906 17:37:28.568848  3398 net.cpp:432] L5 -> L5
I0906 17:37:29.093179  3398 net.cpp:155] Setting up L5
I0906 17:37:29.093211  3398 net.cpp:163] Top shape: 10 4096 15 20 (12288000)
I0906 17:37:29.093221  3398 layer_factory.hpp:76] Creating layer relu6
I0906 17:37:29.093230  3398 net.cpp:110] Creating Layer relu6
I0906 17:37:29.093235  3398 net.cpp:476] relu6 <- L5
I0906 17:37:29.093241  3398 net.cpp:419] relu6 -> L5 (in-place)
I0906 17:37:29.093250  3398 net.cpp:155] Setting up relu6
I0906 17:37:29.093255  3398 net.cpp:163] Top shape: 10 4096 15 20 (12288000)
I0906 17:37:29.093258  3398 layer_factory.hpp:76] Creating layer drop6
I0906 17:37:29.093264  3398 net.cpp:110] Creating Layer drop6
I0906 17:37:29.093268  3398 net.cpp:476] drop6 <- L5
I0906 17:37:29.093273  3398 net.cpp:419] drop6 -> L5 (in-place)
I0906 17:37:29.093281  3398 net.cpp:155] Setting up drop6
I0906 17:37:29.093286  3398 net.cpp:163] Top shape: 10 4096 15 20 (12288000)
I0906 17:37:29.093289  3398 layer_factory.hpp:76] Creating layer L5_drop6_0_split
I0906 17:37:29.093294  3398 net.cpp:110] Creating Layer L5_drop6_0_split
I0906 17:37:29.093298  3398 net.cpp:476] L5_drop6_0_split <- L5
I0906 17:37:29.093303  3398 net.cpp:432] L5_drop6_0_split -> L5_drop6_0_split_0
I0906 17:37:29.093310  3398 net.cpp:432] L5_drop6_0_split -> L5_drop6_0_split_1
I0906 17:37:29.093317  3398 net.cpp:432] L5_drop6_0_split -> L5_drop6_0_split_2
I0906 17:37:29.093322  3398 net.cpp:155] Setting up L5_drop6_0_split
I0906 17:37:29.093327  3398 net.cpp:163] Top shape: 10 4096 15 20 (12288000)
I0906 17:37:29.093333  3398 net.cpp:163] Top shape: 10 4096 15 20 (12288000)
I0906 17:37:29.093336  3398 net.cpp:163] Top shape: 10 4096 15 20 (12288000)
I0906 17:37:29.093340  3398 layer_factory.hpp:76] Creating layer L6a
I0906 17:37:29.093349  3398 net.cpp:110] Creating Layer L6a
I0906 17:37:29.093353  3398 net.cpp:476] L6a <- L5_drop6_0_split_0
I0906 17:37:29.093360  3398 net.cpp:432] L6a -> L6a
I0906 17:37:29.240731  3398 net.cpp:155] Setting up L6a
I0906 17:37:29.240761  3398 net.cpp:163] Top shape: 10 4096 15 20 (12288000)
I0906 17:37:29.240769  3398 layer_factory.hpp:76] Creating layer relu7a
I0906 17:37:29.240777  3398 net.cpp:110] Creating Layer relu7a
I0906 17:37:29.240782  3398 net.cpp:476] relu7a <- L6a
I0906 17:37:29.240789  3398 net.cpp:419] relu7a -> L6a (in-place)
I0906 17:37:29.240797  3398 net.cpp:155] Setting up relu7a
I0906 17:37:29.240803  3398 net.cpp:163] Top shape: 10 4096 15 20 (12288000)
I0906 17:37:29.240806  3398 layer_factory.hpp:76] Creating layer drop7a
I0906 17:37:29.240811  3398 net.cpp:110] Creating Layer drop7a
I0906 17:37:29.240815  3398 net.cpp:476] drop7a <- L6a
I0906 17:37:29.240828  3398 net.cpp:419] drop7a -> L6a (in-place)
I0906 17:37:29.240835  3398 net.cpp:155] Setting up drop7a
I0906 17:37:29.240840  3398 net.cpp:163] Top shape: 10 4096 15 20 (12288000)
I0906 17:37:29.240844  3398 layer_factory.hpp:76] Creating layer L6b
I0906 17:37:29.240850  3398 net.cpp:110] Creating Layer L6b
I0906 17:37:29.240867  3398 net.cpp:476] L6b <- L5_drop6_0_split_1
I0906 17:37:29.240875  3398 net.cpp:432] L6b -> L6b
I0906 17:37:29.389070  3398 net.cpp:155] Setting up L6b
I0906 17:37:29.389101  3398 net.cpp:163] Top shape: 10 4096 15 20 (12288000)
I0906 17:37:29.389111  3398 layer_factory.hpp:76] Creating layer relu7b
I0906 17:37:29.389117  3398 net.cpp:110] Creating Layer relu7b
I0906 17:37:29.389123  3398 net.cpp:476] relu7b <- L6b
I0906 17:37:29.389129  3398 net.cpp:419] relu7b -> L6b (in-place)
I0906 17:37:29.389137  3398 net.cpp:155] Setting up relu7b
I0906 17:37:29.389142  3398 net.cpp:163] Top shape: 10 4096 15 20 (12288000)
I0906 17:37:29.389147  3398 layer_factory.hpp:76] Creating layer drop7b
I0906 17:37:29.389154  3398 net.cpp:110] Creating Layer drop7b
I0906 17:37:29.389158  3398 net.cpp:476] drop7b <- L6b
I0906 17:37:29.389163  3398 net.cpp:419] drop7b -> L6b (in-place)
I0906 17:37:29.389169  3398 net.cpp:155] Setting up drop7b
I0906 17:37:29.389173  3398 net.cpp:163] Top shape: 10 4096 15 20 (12288000)
I0906 17:37:29.389178  3398 layer_factory.hpp:76] Creating layer L6c
I0906 17:37:29.389183  3398 net.cpp:110] Creating Layer L6c
I0906 17:37:29.389187  3398 net.cpp:476] L6c <- L5_drop6_0_split_2
I0906 17:37:29.389194  3398 net.cpp:432] L6c -> L6c
I0906 17:37:29.536592  3398 net.cpp:155] Setting up L6c
I0906 17:37:29.536622  3398 net.cpp:163] Top shape: 10 4096 15 20 (12288000)
I0906 17:37:29.536633  3398 layer_factory.hpp:76] Creating layer relu7c
I0906 17:37:29.536643  3398 net.cpp:110] Creating Layer relu7c
I0906 17:37:29.536648  3398 net.cpp:476] relu7c <- L6c
I0906 17:37:29.536654  3398 net.cpp:419] relu7c -> L6c (in-place)
I0906 17:37:29.536661  3398 net.cpp:155] Setting up relu7c
I0906 17:37:29.536666  3398 net.cpp:163] Top shape: 10 4096 15 20 (12288000)
I0906 17:37:29.536670  3398 layer_factory.hpp:76] Creating layer drop7c
I0906 17:37:29.536677  3398 net.cpp:110] Creating Layer drop7c
I0906 17:37:29.536681  3398 net.cpp:476] drop7c <- L6c
I0906 17:37:29.536685  3398 net.cpp:419] drop7c -> L6c (in-place)
I0906 17:37:29.536692  3398 net.cpp:155] Setting up drop7c
I0906 17:37:29.536696  3398 net.cpp:163] Top shape: 10 4096 15 20 (12288000)
I0906 17:37:29.536700  3398 layer_factory.hpp:76] Creating layer bb-output
I0906 17:37:29.536706  3398 net.cpp:110] Creating Layer bb-output
I0906 17:37:29.536710  3398 net.cpp:476] bb-output <- L6a
I0906 17:37:29.536716  3398 net.cpp:432] bb-output -> bb-output
I0906 17:37:29.545886  3398 net.cpp:155] Setting up bb-output
I0906 17:37:29.545899  3398 net.cpp:163] Top shape: 10 256 15 20 (768000)
I0906 17:37:29.545907  3398 layer_factory.hpp:76] Creating layer pixel-conv
I0906 17:37:29.545913  3398 net.cpp:110] Creating Layer pixel-conv
I0906 17:37:29.545918  3398 net.cpp:476] pixel-conv <- L6b
I0906 17:37:29.545925  3398 net.cpp:432] pixel-conv -> pixel-conv
I0906 17:37:29.550496  3398 net.cpp:155] Setting up pixel-conv
I0906 17:37:29.550506  3398 net.cpp:163] Top shape: 10 128 15 20 (384000)
I0906 17:37:29.550513  3398 layer_factory.hpp:76] Creating layer type-conv
I0906 17:37:29.550518  3398 net.cpp:110] Creating Layer type-conv
I0906 17:37:29.550523  3398 net.cpp:476] type-conv <- L6c
I0906 17:37:29.550529  3398 net.cpp:432] type-conv -> type-conv
I0906 17:37:29.587440  3398 net.cpp:155] Setting up type-conv
I0906 17:37:29.587468  3398 net.cpp:163] Top shape: 10 1024 15 20 (3072000)
I0906 17:37:29.587477  3398 layer_factory.hpp:76] Creating layer pixel-tile
I0906 17:37:29.587486  3398 net.cpp:110] Creating Layer pixel-tile
I0906 17:37:29.587492  3398 net.cpp:476] pixel-tile <- pixel-conv
I0906 17:37:29.587499  3398 net.cpp:432] pixel-tile -> pixel-conv-tiled
I0906 17:37:29.587508  3398 net.cpp:155] Setting up pixel-tile
I0906 17:37:29.587522  3398 net.cpp:163] Top shape: 10 2 120 160 (384000)
I0906 17:37:29.587525  3398 layer_factory.hpp:76] Creating layer pixel-conv-tiled_pixel-tile_0_split
I0906 17:37:29.587532  3398 net.cpp:110] Creating Layer pixel-conv-tiled_pixel-tile_0_split
I0906 17:37:29.587536  3398 net.cpp:476] pixel-conv-tiled_pixel-tile_0_split <- pixel-conv-tiled
I0906 17:37:29.587553  3398 net.cpp:432] pixel-conv-tiled_pixel-tile_0_split -> pixel-conv-tiled_pixel-tile_0_split_0
I0906 17:37:29.587560  3398 net.cpp:432] pixel-conv-tiled_pixel-tile_0_split -> pixel-conv-tiled_pixel-tile_0_split_1
I0906 17:37:29.587566  3398 net.cpp:155] Setting up pixel-conv-tiled_pixel-tile_0_split
I0906 17:37:29.587571  3398 net.cpp:163] Top shape: 10 2 120 160 (384000)
I0906 17:37:29.587576  3398 net.cpp:163] Top shape: 10 2 120 160 (384000)
I0906 17:37:29.587579  3398 layer_factory.hpp:76] Creating layer bb-tile
I0906 17:37:29.587586  3398 net.cpp:110] Creating Layer bb-tile
I0906 17:37:29.587591  3398 net.cpp:476] bb-tile <- bb-output
I0906 17:37:29.587615  3398 net.cpp:432] bb-tile -> bb-output-tiled
I0906 17:37:29.587620  3398 net.cpp:155] Setting up bb-tile
I0906 17:37:29.587625  3398 net.cpp:163] Top shape: 10 4 120 160 (768000)
I0906 17:37:29.587630  3398 layer_factory.hpp:76] Creating layer type-tile
I0906 17:37:29.587635  3398 net.cpp:110] Creating Layer type-tile
I0906 17:37:29.587641  3398 net.cpp:476] type-tile <- type-conv
I0906 17:37:29.587646  3398 net.cpp:432] type-tile -> type-conv-tiled
I0906 17:37:29.587651  3398 net.cpp:155] Setting up type-tile
I0906 17:37:29.587667  3398 net.cpp:163] Top shape: 10 64 60 80 (3072000)
I0906 17:37:29.587671  3398 layer_factory.hpp:76] Creating layer type-conv-tiled_type-tile_0_split
I0906 17:37:29.587675  3398 net.cpp:110] Creating Layer type-conv-tiled_type-tile_0_split
I0906 17:37:29.587679  3398 net.cpp:476] type-conv-tiled_type-tile_0_split <- type-conv-tiled
I0906 17:37:29.587685  3398 net.cpp:432] type-conv-tiled_type-tile_0_split -> type-conv-tiled_type-tile_0_split_0
I0906 17:37:29.587692  3398 net.cpp:432] type-conv-tiled_type-tile_0_split -> type-conv-tiled_type-tile_0_split_1
I0906 17:37:29.587697  3398 net.cpp:155] Setting up type-conv-tiled_type-tile_0_split
I0906 17:37:29.587702  3398 net.cpp:163] Top shape: 10 64 60 80 (3072000)
I0906 17:37:29.587707  3398 net.cpp:163] Top shape: 10 64 60 80 (3072000)
I0906 17:37:29.587710  3398 layer_factory.hpp:76] Creating layer pixel-loss
I0906 17:37:29.587718  3398 net.cpp:110] Creating Layer pixel-loss
I0906 17:37:29.587723  3398 net.cpp:476] pixel-loss <- pixel-conv-tiled_pixel-tile_0_split_0
I0906 17:37:29.587728  3398 net.cpp:476] pixel-loss <- pixel-label_slice-label_0_split_4
I0906 17:37:29.587733  3398 net.cpp:432] pixel-loss -> pixel-loss
…
