…
I0920 11:45:14.812608 19099 net.cpp:50] Initializing net from parameters: 
name: "VPGNet-noVP"
state {
  phase: TRAIN
}
layer {
  name: "data"
  type: "DriveData"
  top: "data"
  top: "label"
  top: "type"
  include {
    phase: TRAIN
  }
  transform_param {
    mean_file: "./driving_mean_train.binaryproto"
  }
  data_param {
    source: "./LMDB_train"
    batch_size: 24
    backend: LMDB
  }
  drive_data_param {
    shrink_prob_factor: 1
    unrecognize_factor: 0
    crop_num: 1
    random_crop_ratio: 1
    resize: 1
    scale: 1
    catalog_resolution: 4
    reco_min: 4
    train_min: 4
  }
}
layer {
  name: "slice-label"
  type: "Slice"
  bottom: "label"
  top: "pixel-label"
  top: "bb-label"
  top: "size-label"
  top: "norm-label"
  slice_param {
    slice_dim: 1
    slice_point: 1
    slice_point: 5
    slice_point: 7
  }
}
layer {
  name: "pixel-block"
  type: "Concat"
  bottom: "pixel-label"
  bottom: "pixel-label"
  bottom: "pixel-label"
  bottom: "pixel-label"
  top: "pixel-block"
  concat_param {
    concat_dim: 1
  }
}
layer {
  name: "size-block"
  type: "Concat"
  bottom: "size-label"
  bottom: "size-label"
  top: "size-block"
  concat_param {
    concat_dim: 1
  }
}
layer {
  name: "norm-block"
  type: "Concat"
  bottom: "norm-label"
  bottom: "norm-label"
  bottom: "norm-label"
  bottom: "norm-label"
  top: "norm-block"
  concat_param {
    concat_dim: 1
  }
}
layer {
  name: "bb-label-size-normalization"
  type: "Eltwise"
  bottom: "bb-label"
  bottom: "size-block"
  top: "bb-label-sn"
  eltwise_param {
    operation: PROD
  }
}
layer {
  name: "bb-label-num-pixel-normalization"
  type: "Eltwise"
  bottom: "bb-label-sn"
  bottom: "norm-block"
  top: "bb-label-sn-nn"
  eltwise_param {
    operation: PROD
  }
}
layer {
  name: "L0"
  type: "Convolution"
  bottom: "data"
  top: "L0"
  param {
    lr_mult: 1
    decay_mult: 1
  }
  param {
    lr_mult: 2
    decay_mult: 0
  }
  convolution_param {
    num_output: 96
    kernel_size: 11
    stride: 4
    weight_filler {
      type: "gaussian"
      std: 0.01
    }
    bias_filler {
      type: "constant"
      value: 1
    }
  }
}
layer {
  name: "relu1"
  type: "ReLU"
  bottom: "L0"
  top: "L0"
}
layer {
  name: "norm1"
  type: "LRN"
  bottom: "L0"
  top: "norm1"
  lrn_param {
    local_size: 5
    alpha: 0.0005
    beta: 0.75
    k: 2
  }
}
layer {
  name: "pool1"
  type: "Pooling"
  bottom: "norm1"
  top: "pool1"
  pooling_param {
    pool: MAX
    kernel_size: 3
    stride: 2
  }
}
layer {
  name: "L1"
  type: "Convolution"
  bottom: "pool1"
  top: "L1"
  param {
    lr_mult: 1
    decay_mult: 1
  }
  param {
    lr_mult: 2
    decay_mult: 0
  }
  convolution_param {
    num_output: 256
    pad: 2
    kernel_size: 5
    group: 1
    weight_filler {
      type: "gaussian"
      std: 0.01
    }
    bias_filler {
      type: "constant"
      value: 1
    }
  }
}
layer {
  name: "relu2"
  type: "ReLU"
  bottom: "L1"
  top: "L1"
}
layer {
  name: "norm2"
  type: "LRN"
  bottom: "L1"
  top: "norm2"
  lrn_param {
    local_size: 5
    alpha: 0.0005
    beta: 0.75
    k: 8
  }
}
layer {
  name: "pool2"
  type: "Pooling"
  bottom: "norm2"
  top: "pool2"
  pooling_param {
    pool: MAX
    kernel_size: 3
    stride: 2
  }
}
layer {
  name: "L2"
  type: "Convolution"
  bottom: "pool2"
  top: "L2"
  param {
    lr_mult: 1
    decay_mult: 1
  }
  param {
    lr_mult: 2
    decay_mult: 0
  }
  convolution_param {
    num_output: 384
    pad: 1
    kernel_size: 3
    weight_filler {
      type: "gaussian"
      std: 0.01
    }
    bias_filler {
      type: "constant"
      value: 0.1
    }
  }
}
layer {
  name: "relu3"
  type: "ReLU"
  bottom: "L2"
  top: "L2"
}
layer {
  name: "L3"
  type: "Convolution"
  bottom: "L2"
  top: "L3"
  param {
    lr_mult: 1
    decay_mult: 1
  }
  param {
    lr_mult: 2
    decay_mult: 0
  }
  convolution_param {
    num_output: 384
    pad: 1
    kernel_size: 3
    group: 1
    weight_filler {
      type: "gaussian"
      std: 0.01
    }
    bias_filler {
      type: "constant"
      value: 0.1
    }
  }
}
layer {
  name: "relu4"
  type: "ReLU"
  bottom: "L3"
  top: "L3"
}
layer {
  name: "L4"
  type: "Convolution"
  bottom: "L3"
  top: "L4"
  param {
    lr_mult: 1
    decay_mult: 1
  }
  param {
    lr_mult: 2
    decay_mult: 0
  }
  convolution_param {
    num_output: 384
    pad: 1
    kernel_size: 3
    group: 1
    weight_filler {
      type: "gaussian"
      std: 0.01
    }
    bias_filler {
      type: "constant"
      value: 0.1
    }
  }
}
layer {
  name: "relu5"
  type: "ReLU"
  bottom: "L4"
  top: "L4"
}
layer {
  name: "pool5"
  type: "Pooling"
  bottom: "L4"
  top: "pool5"
  pooling_param {
    pool: MAX
    kernel_size: 3
    stride: 2
  }
}
layer {
  name: "L5"
  type: "Convolution"
  bottom: "pool5"
  top: "L5"
  param {
    lr_mult: 1
    decay_mult: 1
  }
  param {
    lr_mult: 2
    decay_mult: 0
  }
  convolution_param {
    num_output: 4096
    pad: 3
    kernel_size: 6
    weight_filler {
      type: "gaussian"
      std: 0.01
    }
    bias_filler {
      type: "constant"
      value: 1
    }
  }
}
layer {
  name: "relu6"
  type: "ReLU"
  bottom: "L5"
  top: "L5"
}
layer {
  name: "drop6"
  type: "Dropout"
  bottom: "L5"
  top: "L5"
  dropout_param {
    dropout_ratio: 0.5
  }
}
layer {
  name: "L6a"
  type: "Convolution"
  bottom: "L5"
  top: "L6a"
  param {
    lr_mult: 5
    decay_mult: 0.1
  }
  param {
    lr_mult: 2
    decay_mult: 0
  }
  convolution_param {
    num_output: 4096
    kernel_size: 1
    weight_filler {
      type: "gaussian"
      std: 0.01
    }
    bias_filler {
      type: "constant"
      value: 1
    }
  }
}
layer {
  name: "relu7a"
  type: "ReLU"
  bottom: "L6a"
  top: "L6a"
}
layer {
  name: "drop7a"
  type: "Dropout"
  bottom: "L6a"
  top: "L6a"
  dropout_param {
    dropout_ratio: 0.5
  }
}
layer {
  name: "L6b"
  type: "Convolution"
  bottom: "L5"
  top: "L6b"
  param {
    lr_mult: 5
    decay_mult: 0.1
  }
  param {
    lr_mult: 2
    decay_mult: 0
  }
  convolution_param {
    num_output: 4096
    kernel_size: 1
    weight_filler {
      type: "gaussian"
      std: 0.01
    }
    bias_filler {
      type: "constant"
      value: 1
    }
  }
}
layer {
  name: "relu7b"
  type: "ReLU"
  bottom: "L6b"
  top: "L6b"
}
layer {
  name: "drop7b"
  type: "Dropout"
  bottom: "L6b"
  top: "L6b"
  dropout_param {
    dropout_ratio: 0.5
  }
}
layer {
  name: "L6c"
  type: "Convolution"
  bottom: "L5"
  top: "L6c"
  param {
    lr_mult: 5
    decay_mult: 0.1
  }
  param {
    lr_mult: 2
    decay_mult: 0
  }
  convolution_param {
    num_output: 4096
    kernel_size: 1
    weight_filler {
      type: "gaussian"
      std: 0.01
    }
    bias_filler {
      type: "constant"
      value: 1
    }
  }
}
layer {
  name: "relu7c"
  type: "ReLU"
  bottom: "L6c"
  top: "L6c"
}
layer {
  name: "drop7c"
  type: "Dropout"
  bottom: "L6c"
  top: "L6c"
  dropout_param {
    dropout_ratio: 0.5
  }
}
layer {
  name: "bb-output"
  type: "Convolution"
  bottom: "L6a"
  top: "bb-output"
  param {
    lr_mult: 20
    decay_mult: 0.1
  }
  param {
    lr_mult: 20
    decay_mult: 0
  }
  convolution_param {
    num_output: 256
    kernel_size: 1
    weight_filler {
      type: "gaussian"
      std: 0.01
    }
    bias_filler {
      type: "constant"
      value: 0
    }
  }
}
layer {
  name: "pixel-conv"
  type: "Convolution"
  bottom: "L6b"
  top: "pixel-conv"
  param {
    lr_mult: 1
    decay_mult: 1
  }
  param {
    lr_mult: 2
    decay_mult: 0
  }
  convolution_param {
    num_output: 128
    kernel_size: 1
    weight_filler {
      type: "gaussian"
      std: 0.01
    }
    bias_filler {
      type: "constant"
      value: 0
    }
  }
}
layer {
  name: "type-conv"
  type: "Convolution"
  bottom: "L6c"
  top: "type-conv"
  param {
    lr_mult: 1
    decay_mult: 1
  }
  param {
    lr_mult: 2
    decay_mult: 0
  }
  convolution_param {
    num_output: 1024
    kernel_size: 1
    weight_filler {
      type: "gaussian"
      std: 0.01
    }
    bias_filler {
      type: "constant"
      value: 0
    }
  }
}
layer {
  name: "pixel-tile"
  type: "Tiling"
  bottom: "pixel-conv"
  top: "pixel-conv-tiled"
  tiling_param {
    tile_dim: 8
  }
}
layer {
  name: "bb-tile"
  type: "Tiling"
  bottom: "bb-output"
  top: "bb-output-tiled"
  tiling_param {
    tile_dim: 8
  }
}
layer {
  name: "type-tile"
  type: "Tiling"
  bottom: "type-conv"
  top: "type-conv-tiled"
  tiling_param {
    tile_dim: 4
  }
}
layer {
  name: "pixel-loss"
  type: "SoftmaxWithLoss"
  bottom: "pixel-conv-tiled"
  bottom: "pixel-label"
  top: "pixel-loss"
  loss_weight: 1
}
layer {
  name: "type-loss"
  type: "SoftmaxWithLoss"
  bottom: "type-conv-tiled"
  bottom: "type"
  top: "type-loss"
  loss_weight: 1
}
layer {
  name: "bb-prob-mask"
  type: "Eltwise"
  bottom: "bb-output-tiled"
  bottom: "pixel-block"
  top: "bb-masked-output"
  eltwise_param {
    operation: PROD
  }
}
layer {
  name: "bb-size-normalization"
  type: "Eltwise"
  bottom: "bb-masked-output"
  bottom: "size-block"
  top: "bb-masked-output-sn"
  eltwise_param {
    operation: PROD
  }
}
layer {
  name: "bb-num-pixel-normalization"
  type: "Eltwise"
  bottom: "bb-masked-output-sn"
  bottom: "norm-block"
  top: "bb-masked-output-sn-nn"
  eltwise_param {
    operation: PROD
  }
}
layer {
  name: "bb-loss"
  type: "L1Loss"
  bottom: "bb-masked-output-sn-nn"
  bottom: "bb-label-sn-nn"
  top: "bb-loss"
  loss_weight: 3
}
I0920 11:45:14.812856 19099 layer_factory.hpp:76] Creating layer data
I0920 11:45:14.813040 19099 net.cpp:110] Creating Layer data
I0920 11:45:14.813050 19099 net.cpp:432] data -> data
I0920 11:45:14.813081 19099 net.cpp:432] data -> label
I0920 11:45:14.813088 19099 net.cpp:432] data -> type
I0920 11:45:14.813127 19099 data_transformer.cpp:23] Loading mean file from: ./driving_mean_train.binaryproto
I0920 11:45:14.815670 19127 db_lmdb.cpp:22] Opened lmdb ./LMDB_train
I0920 11:45:14.826949 19099 drive_data_layer.cpp:49] output data size: 24,3,480,640
I0920 11:45:14.954607 19099 net.cpp:155] Setting up data
I0920 11:45:14.954664 19099 net.cpp:163] Top shape: 24 3 480 640 (22118400)
I0920 11:45:14.954671 19099 net.cpp:163] Top shape: 24 8 120 160 (3686400)
I0920 11:45:14.954676 19099 net.cpp:163] Top shape: 24 1 60 80 (115200)
I0920 11:45:14.954685 19099 layer_factory.hpp:76] Creating layer slice-label
I0920 11:45:14.954699 19099 net.cpp:110] Creating Layer slice-label
I0920 11:45:14.954705 19099 net.cpp:476] slice-label <- label
I0920 11:45:14.954720 19099 net.cpp:432] slice-label -> pixel-label
I0920 11:45:14.954731 19099 net.cpp:432] slice-label -> bb-label
I0920 11:45:14.954738 19099 net.cpp:432] slice-label -> size-label
I0920 11:45:14.954744 19099 net.cpp:432] slice-label -> norm-label
I0920 11:45:14.954757 19099 net.cpp:155] Setting up slice-label
I0920 11:45:14.954763 19099 net.cpp:163] Top shape: 24 1 120 160 (460800)
I0920 11:45:14.954768 19099 net.cpp:163] Top shape: 24 4 120 160 (1843200)
I0920 11:45:14.954773 19099 net.cpp:163] Top shape: 24 2 120 160 (921600)
I0920 11:45:14.954777 19099 net.cpp:163] Top shape: 24 1 120 160 (460800)
I0920 11:45:14.954782 19099 layer_factory.hpp:76] Creating layer pixel-label_slice-label_0_split
I0920 11:45:14.954789 19099 net.cpp:110] Creating Layer pixel-label_slice-label_0_split
I0920 11:45:14.954794 19099 net.cpp:476] pixel-label_slice-label_0_split <- pixel-label
I0920 11:45:14.954808 19099 net.cpp:432] pixel-label_slice-label_0_split -> pixel-label_slice-label_0_split_0
I0920 11:45:14.954828 19099 net.cpp:432] pixel-label_slice-label_0_split -> pixel-label_slice-label_0_split_1
I0920 11:45:14.954835 19099 net.cpp:432] pixel-label_slice-label_0_split -> pixel-label_slice-label_0_split_2
I0920 11:45:14.954843 19099 net.cpp:432] pixel-label_slice-label_0_split -> pixel-label_slice-label_0_split_3
I0920 11:45:14.954847 19099 net.cpp:432] pixel-label_slice-label_0_split -> pixel-label_slice-label_0_split_4
I0920 11:45:14.954856 19099 net.cpp:155] Setting up pixel-label_slice-label_0_split
I0920 11:45:14.954861 19099 net.cpp:163] Top shape: 24 1 120 160 (460800)
I0920 11:45:14.954866 19099 net.cpp:163] Top shape: 24 1 120 160 (460800)
I0920 11:45:14.954871 19099 net.cpp:163] Top shape: 24 1 120 160 (460800)
I0920 11:45:14.954876 19099 net.cpp:163] Top shape: 24 1 120 160 (460800)
I0920 11:45:14.954881 19099 net.cpp:163] Top shape: 24 1 120 160 (460800)
I0920 11:45:14.954885 19099 layer_factory.hpp:76] Creating layer size-label_slice-label_2_split
I0920 11:45:14.954891 19099 net.cpp:110] Creating Layer size-label_slice-label_2_split
I0920 11:45:14.954896 19099 net.cpp:476] size-label_slice-label_2_split <- size-label
I0920 11:45:14.954901 19099 net.cpp:432] size-label_slice-label_2_split -> size-label_slice-label_2_split_0
I0920 11:45:14.954908 19099 net.cpp:432] size-label_slice-label_2_split -> size-label_slice-label_2_split_1
I0920 11:45:14.954915 19099 net.cpp:155] Setting up size-label_slice-label_2_split
I0920 11:45:14.954919 19099 net.cpp:163] Top shape: 24 2 120 160 (921600)
I0920 11:45:14.954924 19099 net.cpp:163] Top shape: 24 2 120 160 (921600)
I0920 11:45:14.954928 19099 layer_factory.hpp:76] Creating layer norm-label_slice-label_3_split
I0920 11:45:14.954934 19099 net.cpp:110] Creating Layer norm-label_slice-label_3_split
I0920 11:45:14.954938 19099 net.cpp:476] norm-label_slice-label_3_split <- norm-label
I0920 11:45:14.954944 19099 net.cpp:432] norm-label_slice-label_3_split -> norm-label_slice-label_3_split_0
I0920 11:45:14.954951 19099 net.cpp:432] norm-label_slice-label_3_split -> norm-label_slice-label_3_split_1
I0920 11:45:14.954957 19099 net.cpp:432] norm-label_slice-label_3_split -> norm-label_slice-label_3_split_2
I0920 11:45:14.954962 19099 net.cpp:432] norm-label_slice-label_3_split -> norm-label_slice-label_3_split_3
I0920 11:45:14.954968 19099 net.cpp:155] Setting up norm-label_slice-label_3_split
I0920 11:45:14.954973 19099 net.cpp:163] Top shape: 24 1 120 160 (460800)
I0920 11:45:14.954978 19099 net.cpp:163] Top shape: 24 1 120 160 (460800)
I0920 11:45:14.954983 19099 net.cpp:163] Top shape: 24 1 120 160 (460800)
I0920 11:45:14.954988 19099 net.cpp:163] Top shape: 24 1 120 160 (460800)
I0920 11:45:14.954993 19099 layer_factory.hpp:76] Creating layer pixel-block
I0920 11:45:14.954999 19099 net.cpp:110] Creating Layer pixel-block
I0920 11:45:14.955004 19099 net.cpp:476] pixel-block <- pixel-label_slice-label_0_split_0
I0920 11:45:14.955009 19099 net.cpp:476] pixel-block <- pixel-label_slice-label_0_split_1
I0920 11:45:14.955014 19099 net.cpp:476] pixel-block <- pixel-label_slice-label_0_split_2
I0920 11:45:14.955019 19099 net.cpp:476] pixel-block <- pixel-label_slice-label_0_split_3
I0920 11:45:14.955024 19099 net.cpp:432] pixel-block -> pixel-block
I0920 11:45:14.955034 19099 net.cpp:155] Setting up pixel-block
I0920 11:45:14.955039 19099 net.cpp:163] Top shape: 24 4 120 160 (1843200)
I0920 11:45:14.955044 19099 layer_factory.hpp:76] Creating layer size-block
I0920 11:45:14.955049 19099 net.cpp:110] Creating Layer size-block
I0920 11:45:14.955052 19099 net.cpp:476] size-block <- size-label_slice-label_2_split_0
I0920 11:45:14.955057 19099 net.cpp:476] size-block <- size-label_slice-label_2_split_1
I0920 11:45:14.955063 19099 net.cpp:432] size-block -> size-block
I0920 11:45:14.955070 19099 net.cpp:155] Setting up size-block
I0920 11:45:14.955075 19099 net.cpp:163] Top shape: 24 4 120 160 (1843200)
I0920 11:45:14.955078 19099 layer_factory.hpp:76] Creating layer size-block_size-block_0_split
I0920 11:45:14.955086 19099 net.cpp:110] Creating Layer size-block_size-block_0_split
I0920 11:45:14.955097 19099 net.cpp:476] size-block_size-block_0_split <- size-block
I0920 11:45:14.955103 19099 net.cpp:432] size-block_size-block_0_split -> size-block_size-block_0_split_0
I0920 11:45:14.955109 19099 net.cpp:432] size-block_size-block_0_split -> size-block_size-block_0_split_1
I0920 11:45:14.955116 19099 net.cpp:155] Setting up size-block_size-block_0_split
I0920 11:45:14.955121 19099 net.cpp:163] Top shape: 24 4 120 160 (1843200)
I0920 11:45:14.955126 19099 net.cpp:163] Top shape: 24 4 120 160 (1843200)
I0920 11:45:14.955129 19099 layer_factory.hpp:76] Creating layer norm-block
I0920 11:45:14.955135 19099 net.cpp:110] Creating Layer norm-block
I0920 11:45:14.955140 19099 net.cpp:476] norm-block <- norm-label_slice-label_3_split_0
I0920 11:45:14.955145 19099 net.cpp:476] norm-block <- norm-label_slice-label_3_split_1
I0920 11:45:14.955150 19099 net.cpp:476] norm-block <- norm-label_slice-label_3_split_2
I0920 11:45:14.955154 19099 net.cpp:476] norm-block <- norm-label_slice-label_3_split_3
I0920 11:45:14.955159 19099 net.cpp:432] norm-block -> norm-block
I0920 11:45:14.955165 19099 net.cpp:155] Setting up norm-block
I0920 11:45:14.955170 19099 net.cpp:163] Top shape: 24 4 120 160 (1843200)
I0920 11:45:14.955175 19099 layer_factory.hpp:76] Creating layer norm-block_norm-block_0_split
I0920 11:45:14.955180 19099 net.cpp:110] Creating Layer norm-block_norm-block_0_split
I0920 11:45:14.955184 19099 net.cpp:476] norm-block_norm-block_0_split <- norm-block
I0920 11:45:14.955190 19099 net.cpp:432] norm-block_norm-block_0_split -> norm-block_norm-block_0_split_0
I0920 11:45:14.955196 19099 net.cpp:432] norm-block_norm-block_0_split -> norm-block_norm-block_0_split_1
I0920 11:45:14.955202 19099 net.cpp:155] Setting up norm-block_norm-block_0_split
I0920 11:45:14.955207 19099 net.cpp:163] Top shape: 24 4 120 160 (1843200)
I0920 11:45:14.955211 19099 net.cpp:163] Top shape: 24 4 120 160 (1843200)
I0920 11:45:14.955216 19099 layer_factory.hpp:76] Creating layer bb-label-size-normalization
I0920 11:45:14.955222 19099 net.cpp:110] Creating Layer bb-label-size-normalization
I0920 11:45:14.955227 19099 net.cpp:476] bb-label-size-normalization <- bb-label
I0920 11:45:14.955232 19099 net.cpp:476] bb-label-size-normalization <- size-block_size-block_0_split_0
I0920 11:45:14.955237 19099 net.cpp:432] bb-label-size-normalization -> bb-label-sn
I0920 11:45:14.955246 19099 net.cpp:155] Setting up bb-label-size-normalization
I0920 11:45:14.955251 19099 net.cpp:163] Top shape: 24 4 120 160 (1843200)
I0920 11:45:14.955255 19099 layer_factory.hpp:76] Creating layer bb-label-num-pixel-normalization
I0920 11:45:14.955261 19099 net.cpp:110] Creating Layer bb-label-num-pixel-normalization
I0920 11:45:14.955265 19099 net.cpp:476] bb-label-num-pixel-normalization <- bb-label-sn
I0920 11:45:14.955271 19099 net.cpp:476] bb-label-num-pixel-normalization <- norm-block_norm-block_0_split_0
I0920 11:45:14.955276 19099 net.cpp:432] bb-label-num-pixel-normalization -> bb-label-sn-nn
I0920 11:45:14.955281 19099 net.cpp:155] Setting up bb-label-num-pixel-normalization
I0920 11:45:14.955286 19099 net.cpp:163] Top shape: 24 4 120 160 (1843200)
I0920 11:45:14.955291 19099 layer_factory.hpp:76] Creating layer L0
I0920 11:45:14.955299 19099 net.cpp:110] Creating Layer L0
I0920 11:45:14.955304 19099 net.cpp:476] L0 <- data
I0920 11:45:14.955310 19099 net.cpp:432] L0 -> L0
I0920 11:45:14.957615 19099 net.cpp:155] Setting up L0
I0920 11:45:14.957633 19099 net.cpp:163] Top shape: 24 96 118 158 (42955776)
I0920 11:45:14.957657 19099 layer_factory.hpp:76] Creating layer relu1
I0920 11:45:14.957665 19099 net.cpp:110] Creating Layer relu1
I0920 11:45:14.957671 19099 net.cpp:476] relu1 <- L0
I0920 11:45:14.957677 19099 net.cpp:419] relu1 -> L0 (in-place)
I0920 11:45:14.957689 19099 net.cpp:155] Setting up relu1
I0920 11:45:14.957693 19099 net.cpp:163] Top shape: 24 96 118 158 (42955776)
I0920 11:45:14.957698 19099 layer_factory.hpp:76] Creating layer norm1
I0920 11:45:14.957710 19099 net.cpp:110] Creating Layer norm1
I0920 11:45:14.957725 19099 net.cpp:476] norm1 <- L0
I0920 11:45:14.957731 19099 net.cpp:432] norm1 -> norm1
I0920 11:45:14.957739 19099 net.cpp:155] Setting up norm1
I0920 11:45:14.957746 19099 net.cpp:163] Top shape: 24 96 118 158 (42955776)
I0920 11:45:14.957749 19099 layer_factory.hpp:76] Creating layer pool1
I0920 11:45:14.957756 19099 net.cpp:110] Creating Layer pool1
I0920 11:45:14.957762 19099 net.cpp:476] pool1 <- norm1
I0920 11:45:14.957767 19099 net.cpp:432] pool1 -> pool1
I0920 11:45:14.957787 19099 net.cpp:155] Setting up pool1
I0920 11:45:14.957792 19099 net.cpp:163] Top shape: 24 96 59 79 (10738944)
I0920 11:45:14.957796 19099 layer_factory.hpp:76] Creating layer L1
I0920 11:45:14.957804 19099 net.cpp:110] Creating Layer L1
I0920 11:45:14.957809 19099 net.cpp:476] L1 <- pool1
I0920 11:45:14.957815 19099 net.cpp:432] L1 -> L1
I0920 11:45:14.966579 19099 net.cpp:155] Setting up L1
I0920 11:45:14.966604 19099 net.cpp:163] Top shape: 24 256 59 79 (28637184)
I0920 11:45:14.966616 19099 layer_factory.hpp:76] Creating layer relu2
I0920 11:45:14.966625 19099 net.cpp:110] Creating Layer relu2
I0920 11:45:14.966631 19099 net.cpp:476] relu2 <- L1
I0920 11:45:14.966639 19099 net.cpp:419] relu2 -> L1 (in-place)
I0920 11:45:14.966646 19099 net.cpp:155] Setting up relu2
I0920 11:45:14.966651 19099 net.cpp:163] Top shape: 24 256 59 79 (28637184)
I0920 11:45:14.966656 19099 layer_factory.hpp:76] Creating layer norm2
I0920 11:45:14.966662 19099 net.cpp:110] Creating Layer norm2
I0920 11:45:14.966667 19099 net.cpp:476] norm2 <- L1
I0920 11:45:14.966672 19099 net.cpp:432] norm2 -> norm2
I0920 11:45:14.966681 19099 net.cpp:155] Setting up norm2
I0920 11:45:14.966686 19099 net.cpp:163] Top shape: 24 256 59 79 (28637184)
I0920 11:45:14.966691 19099 layer_factory.hpp:76] Creating layer pool2
I0920 11:45:14.966696 19099 net.cpp:110] Creating Layer pool2
I0920 11:45:14.966701 19099 net.cpp:476] pool2 <- norm2
I0920 11:45:14.966706 19099 net.cpp:432] pool2 -> pool2
I0920 11:45:14.966717 19099 net.cpp:155] Setting up pool2
I0920 11:45:14.966722 19099 net.cpp:163] Top shape: 24 256 29 39 (6948864)
I0920 11:45:14.966727 19099 layer_factory.hpp:76] Creating layer L2
I0920 11:45:14.966733 19099 net.cpp:110] Creating Layer L2
I0920 11:45:14.966738 19099 net.cpp:476] L2 <- pool2
I0920 11:45:14.966744 19099 net.cpp:432] L2 -> L2
I0920 11:45:14.977788 19099 net.cpp:155] Setting up L2
I0920 11:45:14.977814 19099 net.cpp:163] Top shape: 24 384 29 39 (10423296)
I0920 11:45:14.977826 19099 layer_factory.hpp:76] Creating layer relu3
I0920 11:45:14.977836 19099 net.cpp:110] Creating Layer relu3
I0920 11:45:14.977843 19099 net.cpp:476] relu3 <- L2
I0920 11:45:14.977849 19099 net.cpp:419] relu3 -> L2 (in-place)
I0920 11:45:14.977857 19099 net.cpp:155] Setting up relu3
I0920 11:45:14.977864 19099 net.cpp:163] Top shape: 24 384 29 39 (10423296)
I0920 11:45:14.977867 19099 layer_factory.hpp:76] Creating layer L3
I0920 11:45:14.977875 19099 net.cpp:110] Creating Layer L3
I0920 11:45:14.977880 19099 net.cpp:476] L3 <- L2
I0920 11:45:14.977885 19099 net.cpp:432] L3 -> L3
I0920 11:45:14.995465 19099 net.cpp:155] Setting up L3
I0920 11:45:14.995506 19099 net.cpp:163] Top shape: 24 384 29 39 (10423296)
I0920 11:45:14.995518 19099 layer_factory.hpp:76] Creating layer relu4
I0920 11:45:14.995528 19099 net.cpp:110] Creating Layer relu4
I0920 11:45:14.995535 19099 net.cpp:476] relu4 <- L3
I0920 11:45:14.995543 19099 net.cpp:419] relu4 -> L3 (in-place)
I0920 11:45:14.995553 19099 net.cpp:155] Setting up relu4
I0920 11:45:14.995559 19099 net.cpp:163] Top shape: 24 384 29 39 (10423296)
I0920 11:45:14.995564 19099 layer_factory.hpp:76] Creating layer L4
I0920 11:45:14.995573 19099 net.cpp:110] Creating Layer L4
I0920 11:45:14.995579 19099 net.cpp:476] L4 <- L3
I0920 11:45:14.995585 19099 net.cpp:432] L4 -> L4
I0920 11:45:15.017928 19099 net.cpp:155] Setting up L4
I0920 11:45:15.017968 19099 net.cpp:163] Top shape: 24 384 29 39 (10423296)
I0920 11:45:15.017982 19099 layer_factory.hpp:76] Creating layer relu5
I0920 11:45:15.018002 19099 net.cpp:110] Creating Layer relu5
I0920 11:45:15.018019 19099 net.cpp:476] relu5 <- L4
I0920 11:45:15.018026 19099 net.cpp:419] relu5 -> L4 (in-place)
I0920 11:45:15.018035 19099 net.cpp:155] Setting up relu5
I0920 11:45:15.018041 19099 net.cpp:163] Top shape: 24 384 29 39 (10423296)
I0920 11:45:15.018045 19099 layer_factory.hpp:76] Creating layer pool5
I0920 11:45:15.018052 19099 net.cpp:110] Creating Layer pool5
I0920 11:45:15.018056 19099 net.cpp:476] pool5 <- L4
I0920 11:45:15.018062 19099 net.cpp:432] pool5 -> pool5
I0920 11:45:15.018071 19099 net.cpp:155] Setting up pool5
I0920 11:45:15.018076 19099 net.cpp:163] Top shape: 24 384 14 19 (2451456)
I0920 11:45:15.018081 19099 layer_factory.hpp:76] Creating layer L5
I0920 11:45:15.018088 19099 net.cpp:110] Creating Layer L5
I0920 11:45:15.018093 19099 net.cpp:476] L5 <- pool5
I0920 11:45:15.018098 19099 net.cpp:432] L5 -> L5
I0920 11:45:15.780429 19099 net.cpp:155] Setting up L5
I0920 11:45:15.780465 19099 net.cpp:163] Top shape: 24 4096 15 20 (29491200)
I0920 11:45:15.780477 19099 layer_factory.hpp:76] Creating layer relu6
I0920 11:45:15.780486 19099 net.cpp:110] Creating Layer relu6
I0920 11:45:15.780493 19099 net.cpp:476] relu6 <- L5
I0920 11:45:15.780499 19099 net.cpp:419] relu6 -> L5 (in-place)
I0920 11:45:15.780508 19099 net.cpp:155] Setting up relu6
I0920 11:45:15.780514 19099 net.cpp:163] Top shape: 24 4096 15 20 (29491200)
I0920 11:45:15.780519 19099 layer_factory.hpp:76] Creating layer drop6
I0920 11:45:15.780525 19099 net.cpp:110] Creating Layer drop6
I0920 11:45:15.780529 19099 net.cpp:476] drop6 <- L5
I0920 11:45:15.780534 19099 net.cpp:419] drop6 -> L5 (in-place)
I0920 11:45:15.780546 19099 net.cpp:155] Setting up drop6
I0920 11:45:15.780551 19099 net.cpp:163] Top shape: 24 4096 15 20 (29491200)
I0920 11:45:15.780555 19099 layer_factory.hpp:76] Creating layer L5_drop6_0_split
I0920 11:45:15.780562 19099 net.cpp:110] Creating Layer L5_drop6_0_split
I0920 11:45:15.780567 19099 net.cpp:476] L5_drop6_0_split <- L5
I0920 11:45:15.780572 19099 net.cpp:432] L5_drop6_0_split -> L5_drop6_0_split_0
I0920 11:45:15.780580 19099 net.cpp:432] L5_drop6_0_split -> L5_drop6_0_split_1
I0920 11:45:15.780586 19099 net.cpp:432] L5_drop6_0_split -> L5_drop6_0_split_2
I0920 11:45:15.780594 19099 net.cpp:155] Setting up L5_drop6_0_split
I0920 11:45:15.780599 19099 net.cpp:163] Top shape: 24 4096 15 20 (29491200)
I0920 11:45:15.780604 19099 net.cpp:163] Top shape: 24 4096 15 20 (29491200)
I0920 11:45:15.780608 19099 net.cpp:163] Top shape: 24 4096 15 20 (29491200)
I0920 11:45:15.780613 19099 layer_factory.hpp:76] Creating layer L6a
I0920 11:45:15.780622 19099 net.cpp:110] Creating Layer L6a
I0920 11:45:15.780625 19099 net.cpp:476] L6a <- L5_drop6_0_split_0
I0920 11:45:15.780632 19099 net.cpp:432] L6a -> L6a
I0920 11:45:15.995887 19099 net.cpp:155] Setting up L6a
I0920 11:45:15.995918 19099 net.cpp:163] Top shape: 24 4096 15 20 (29491200)
I0920 11:45:15.995929 19099 layer_factory.hpp:76] Creating layer relu7a
I0920 11:45:15.995941 19099 net.cpp:110] Creating Layer relu7a
I0920 11:45:15.995947 19099 net.cpp:476] relu7a <- L6a
I0920 11:45:15.995955 19099 net.cpp:419] relu7a -> L6a (in-place)
I0920 11:45:15.995965 19099 net.cpp:155] Setting up relu7a
I0920 11:45:15.995970 19099 net.cpp:163] Top shape: 24 4096 15 20 (29491200)
I0920 11:45:15.995973 19099 layer_factory.hpp:76] Creating layer drop7a
I0920 11:45:15.995980 19099 net.cpp:110] Creating Layer drop7a
I0920 11:45:15.995985 19099 net.cpp:476] drop7a <- L6a
I0920 11:45:15.995990 19099 net.cpp:419] drop7a -> L6a (in-place)
I0920 11:45:15.995996 19099 net.cpp:155] Setting up drop7a
I0920 11:45:15.996002 19099 net.cpp:163] Top shape: 24 4096 15 20 (29491200)
I0920 11:45:15.996006 19099 layer_factory.hpp:76] Creating layer L6b
I0920 11:45:15.996014 19099 net.cpp:110] Creating Layer L6b
I0920 11:45:15.996018 19099 net.cpp:476] L6b <- L5_drop6_0_split_1
I0920 11:45:15.996026 19099 net.cpp:432] L6b -> L6b
I0920 11:45:16.211535 19099 net.cpp:155] Setting up L6b
I0920 11:45:16.211572 19099 net.cpp:163] Top shape: 24 4096 15 20 (29491200)
I0920 11:45:16.211619 19099 layer_factory.hpp:76] Creating layer relu7b
I0920 11:45:16.211630 19099 net.cpp:110] Creating Layer relu7b
I0920 11:45:16.211637 19099 net.cpp:476] relu7b <- L6b
I0920 11:45:16.211644 19099 net.cpp:419] relu7b -> L6b (in-place)
I0920 11:45:16.211653 19099 net.cpp:155] Setting up relu7b
I0920 11:45:16.211658 19099 net.cpp:163] Top shape: 24 4096 15 20 (29491200)
I0920 11:45:16.211663 19099 layer_factory.hpp:76] Creating layer drop7b
I0920 11:45:16.211670 19099 net.cpp:110] Creating Layer drop7b
I0920 11:45:16.211675 19099 net.cpp:476] drop7b <- L6b
I0920 11:45:16.211680 19099 net.cpp:419] drop7b -> L6b (in-place)
I0920 11:45:16.211688 19099 net.cpp:155] Setting up drop7b
I0920 11:45:16.211692 19099 net.cpp:163] Top shape: 24 4096 15 20 (29491200)
I0920 11:45:16.211696 19099 layer_factory.hpp:76] Creating layer L6c
I0920 11:45:16.211705 19099 net.cpp:110] Creating Layer L6c
I0920 11:45:16.211709 19099 net.cpp:476] L6c <- L5_drop6_0_split_2
I0920 11:45:16.211716 19099 net.cpp:432] L6c -> L6c
I0920 11:45:16.413424 19099 net.cpp:155] Setting up L6c
I0920 11:45:16.413457 19099 net.cpp:163] Top shape: 24 4096 15 20 (29491200)
I0920 11:45:16.413472 19099 layer_factory.hpp:76] Creating layer relu7c
I0920 11:45:16.413482 19099 net.cpp:110] Creating Layer relu7c
I0920 11:45:16.413488 19099 net.cpp:476] relu7c <- L6c
I0920 11:45:16.413496 19099 net.cpp:419] relu7c -> L6c (in-place)
I0920 11:45:16.413506 19099 net.cpp:155] Setting up relu7c
I0920 11:45:16.413511 19099 net.cpp:163] Top shape: 24 4096 15 20 (29491200)
I0920 11:45:16.413516 19099 layer_factory.hpp:76] Creating layer drop7c
I0920 11:45:16.413523 19099 net.cpp:110] Creating Layer drop7c
I0920 11:45:16.413528 19099 net.cpp:476] drop7c <- L6c
I0920 11:45:16.413533 19099 net.cpp:419] drop7c -> L6c (in-place)
I0920 11:45:16.413540 19099 net.cpp:155] Setting up drop7c
I0920 11:45:16.413545 19099 net.cpp:163] Top shape: 24 4096 15 20 (29491200)
I0920 11:45:16.413550 19099 layer_factory.hpp:76] Creating layer bb-output
I0920 11:45:16.413558 19099 net.cpp:110] Creating Layer bb-output
I0920 11:45:16.413563 19099 net.cpp:476] bb-output <- L6a
I0920 11:45:16.413569 19099 net.cpp:432] bb-output -> bb-output
I0920 11:45:16.427501 19099 net.cpp:155] Setting up bb-output
I0920 11:45:16.427526 19099 net.cpp:163] Top shape: 24 256 15 20 (1843200)
I0920 11:45:16.427536 19099 layer_factory.hpp:76] Creating layer pixel-conv
I0920 11:45:16.427546 19099 net.cpp:110] Creating Layer pixel-conv
I0920 11:45:16.427551 19099 net.cpp:476] pixel-conv <- L6b
I0920 11:45:16.427559 19099 net.cpp:432] pixel-conv -> pixel-conv
I0920 11:45:16.434451 19099 net.cpp:155] Setting up pixel-conv
I0920 11:45:16.434476 19099 net.cpp:163] Top shape: 24 128 15 20 (921600)
I0920 11:45:16.434489 19099 layer_factory.hpp:76] Creating layer type-conv
I0920 11:45:16.434504 19099 net.cpp:110] Creating Layer type-conv
I0920 11:45:16.434511 19099 net.cpp:476] type-conv <- L6c
I0920 11:45:16.434523 19099 net.cpp:432] type-conv -> type-conv
I0920 11:45:16.484141 19099 net.cpp:155] Setting up type-conv
I0920 11:45:16.484176 19099 net.cpp:163] Top shape: 24 1024 15 20 (7372800)
I0920 11:45:16.484189 19099 layer_factory.hpp:76] Creating layer pixel-tile
I0920 11:45:16.484200 19099 net.cpp:110] Creating Layer pixel-tile
I0920 11:45:16.484206 19099 net.cpp:476] pixel-tile <- pixel-conv
I0920 11:45:16.484215 19099 net.cpp:432] pixel-tile -> pixel-conv-tiled
I0920 11:45:16.484232 19099 net.cpp:155] Setting up pixel-tile
I0920 11:45:16.484238 19099 net.cpp:163] Top shape: 24 2 120 160 (921600)
I0920 11:45:16.484243 19099 layer_factory.hpp:76] Creating layer bb-tile
I0920 11:45:16.484249 19099 net.cpp:110] Creating Layer bb-tile
I0920 11:45:16.484256 19099 net.cpp:476] bb-tile <- bb-output
I0920 11:45:16.484262 19099 net.cpp:432] bb-tile -> bb-output-tiled
I0920 11:45:16.484269 19099 net.cpp:155] Setting up bb-tile
I0920 11:45:16.484275 19099 net.cpp:163] Top shape: 24 4 120 160 (1843200)
I0920 11:45:16.484280 19099 layer_factory.hpp:76] Creating layer type-tile
I0920 11:45:16.484297 19099 net.cpp:110] Creating Layer type-tile
I0920 11:45:16.484321 19099 net.cpp:476] type-tile <- type-conv
I0920 11:45:16.484328 19099 net.cpp:432] type-tile -> type-conv-tiled
I0920 11:45:16.484334 19099 net.cpp:155] Setting up type-tile
I0920 11:45:16.484340 19099 net.cpp:163] Top shape: 24 64 60 80 (7372800)
I0920 11:45:16.484346 19099 layer_factory.hpp:76] Creating layer pixel-loss
I0920 11:45:16.484354 19099 net.cpp:110] Creating Layer pixel-loss
I0920 11:45:16.484359 19099 net.cpp:476] pixel-loss <- pixel-conv-tiled
I0920 11:45:16.484364 19099 net.cpp:476] pixel-loss <- pixel-label_slice-label_0_split_4
I0920 11:45:16.484371 19099 net.cpp:432] pixel-loss -> pixel-loss
I0920 11:45:16.484381 19099 layer_factory.hpp:76] Creating layer pixel-loss
…
I0920 11:45:16.501905 19099 net.cpp:50] Initializing net from parameters: 
name: "VPGNet-noVP"
state {
  phase: TEST
}
layer {
  name: "data"
  type: "DriveData"
  top: "data"
  top: "label"
  top: "type"
  include {
    phase: TEST
  }
  transform_param {
    mean_file: "./driving_mean_train.binaryproto"
  }
  data_param {
    source: "./LMDB_test"
    batch_size: 10
    backend: LMDB
  }
  drive_data_param {
    shrink_prob_factor: 1
    unrecognize_factor: 0
    crop_num: 1
    random_crop_ratio: 1
    resize: 1
    scale: 1
    catalog_resolution: 4
    reco_min: 4
    train_min: 4
  }
}
layer {
  name: "slice-label"
  type: "Slice"
  bottom: "label"
  top: "pixel-label"
  top: "bb-label"
  top: "size-label"
  top: "norm-label"
  slice_param {
    slice_dim: 1
    slice_point: 1
    slice_point: 5
    slice_point: 7
  }
}
layer {
  name: "pixel-block"
  type: "Concat"
  bottom: "pixel-label"
  bottom: "pixel-label"
  bottom: "pixel-label"
  bottom: "pixel-label"
  top: "pixel-block"
  concat_param {
    concat_dim: 1
  }
}
layer {
  name: "size-block"
  type: "Concat"
  bottom: "size-label"
  bottom: "size-label"
  top: "size-block"
  concat_param {
    concat_dim: 1
  }
}
layer {
  name: "norm-block"
  type: "Concat"
  bottom: "norm-label"
  bottom: "norm-label"
  bottom: "norm-label"
  bottom: "norm-label"
  top: "norm-block"
  concat_param {
    concat_dim: 1
  }
}
layer {
  name: "bb-label-size-normalization"
  type: "Eltwise"
  bottom: "bb-label"
  bottom: "size-block"
  top: "bb-label-sn"
  eltwise_param {
    operation: PROD
  }
}
layer {
  name: "bb-label-num-pixel-normalization"
  type: "Eltwise"
  bottom: "bb-label-sn"
  bottom: "norm-block"
  top: "bb-label-sn-nn"
  eltwise_param {
    operation: PROD
  }
}
layer {
  name: "L0"
  type: "Convolution"
  bottom: "data"
  top: "L0"
  param {
    lr_mult: 1
    decay_mult: 1
  }
  param {
    lr_mult: 2
    decay_mult: 0
  }
  convolution_param {
    num_output: 96
    kernel_size: 11
    stride: 4
    weight_filler {
      type: "gaussian"
      std: 0.01
    }
    bias_filler {
      type: "constant"
      value: 1
    }
  }
}
layer {
  name: "relu1"
  type: "ReLU"
  bottom: "L0"
  top: "L0"
}
layer {
  name: "norm1"
  type: "LRN"
  bottom: "L0"
  top: "norm1"
  lrn_param {
    local_size: 5
    alpha: 0.0005
    beta: 0.75
    k: 2
  }
}
layer {
  name: "pool1"
  type: "Pooling"
  bottom: "norm1"
  top: "pool1"
  pooling_param {
    pool: MAX
    kernel_size: 3
    stride: 2
  }
}
layer {
  name: "L1"
  type: "Convolution"
  bottom: "pool1"
  top: "L1"
  param {
    lr_mult: 1
    decay_mult: 1
  }
  param {
    lr_mult: 2
    decay_mult: 0
  }
  convolution_param {
    num_output: 256
    pad: 2
    kernel_size: 5
    group: 1
    weight_filler {
      type: "gaussian"
      std: 0.01
    }
    bias_filler {
      type: "constant"
      value: 1
    }
  }
}
layer {
  name: "relu2"
  type: "ReLU"
  bottom: "L1"
  top: "L1"
}
layer {
  name: "norm2"
  type: "LRN"
  bottom: "L1"
  top: "norm2"
  lrn_param {
    local_size: 5
    alpha: 0.0005
    beta: 0.75
    k: 8
  }
}
layer {
  name: "pool2"
  type: "Pooling"
  bottom: "norm2"
  top: "pool2"
  pooling_param {
    pool: MAX
    kernel_size: 3
    stride: 2
  }
}
layer {
  name: "L2"
  type: "Convolution"
  bottom: "pool2"
  top: "L2"
  param {
    lr_mult: 1
    decay_mult: 1
  }
  param {
    lr_mult: 2
    decay_mult: 0
  }
  convolution_param {
    num_output: 384
    pad: 1
    kernel_size: 3
    weight_filler {
      type: "gaussian"
      std: 0.01
    }
    bias_filler {
      type: "constant"
      value: 0.1
    }
  }
}
layer {
  name: "relu3"
  type: "ReLU"
  bottom: "L2"
  top: "L2"
}
layer {
  name: "L3"
  type: "Convolution"
  bottom: "L2"
  top: "L3"
  param {
    lr_mult: 1
    decay_mult: 1
  }
  param {
    lr_mult: 2
    decay_mult: 0
  }
  convolution_param {
    num_output: 384
    pad: 1
    kernel_size: 3
    group: 1
    weight_filler {
      type: "gaussian"
      std: 0.01
    }
    bias_filler {
      type: "constant"
      value: 0.1
    }
  }
}
layer {
  name: "relu4"
  type: "ReLU"
  bottom: "L3"
  top: "L3"
}
layer {
  name: "L4"
  type: "Convolution"
  bottom: "L3"
  top: "L4"
  param {
    lr_mult: 1
    decay_mult: 1
  }
  param {
    lr_mult: 2
    decay_mult: 0
  }
  convolution_param {
    num_output: 384
    pad: 1
    kernel_size: 3
    group: 1
    weight_filler {
      type: "gaussian"
      std: 0.01
    }
    bias_filler {
      type: "constant"
      value: 0.1
    }
  }
}
layer {
  name: "relu5"
  type: "ReLU"
  bottom: "L4"
  top: "L4"
}
layer {
  name: "pool5"
  type: "Pooling"
  bottom: "L4"
  top: "pool5"
  pooling_param {
    pool: MAX
    kernel_size: 3
    stride: 2
  }
}
layer {
  name: "L5"
  type: "Convolution"
  bottom: "pool5"
  top: "L5"
  param {
    lr_mult: 1
    decay_mult: 1
  }
  param {
    lr_mult: 2
    decay_mult: 0
  }
  convolution_param {
    num_output: 4096
    pad: 3
    kernel_size: 6
    weight_filler {
      type: "gaussian"
      std: 0.01
    }
    bias_filler {
      type: "constant"
      value: 1
    }
  }
}
layer {
  name: "relu6"
  type: "ReLU"
  bottom: "L5"
  top: "L5"
}
layer {
  name: "drop6"
  type: "Dropout"
  bottom: "L5"
  top: "L5"
  dropout_param {
    dropout_ratio: 0.5
  }
}
layer {
  name: "L6a"
  type: "Convolution"
  bottom: "L5"
  top: "L6a"
  param {
    lr_mult: 5
    decay_mult: 0.1
  }
  param {
    lr_mult: 2
    decay_mult: 0
  }
  convolution_param {
    num_output: 4096
    kernel_size: 1
    weight_filler {
      type: "gaussian"
      std: 0.01
    }
    bias_filler {
      type: "constant"
      value: 1
    }
  }
}
layer {
  name: "relu7a"
  type: "ReLU"
  bottom: "L6a"
  top: "L6a"
}
layer {
  name: "drop7a"
  type: "Dropout"
  bottom: "L6a"
  top: "L6a"
  dropout_param {
    dropout_ratio: 0.5
  }
}
layer {
  name: "L6b"
  type: "Convolution"
  bottom: "L5"
  top: "L6b"
  param {
    lr_mult: 5
    decay_mult: 0.1
  }
  param {
    lr_mult: 2
    decay_mult: 0
  }
  convolution_param {
    num_output: 4096
    kernel_size: 1
    weight_filler {
      type: "gaussian"
      std: 0.01
    }
    bias_filler {
      type: "constant"
      value: 1
    }
  }
}
layer {
  name: "relu7b"
  type: "ReLU"
  bottom: "L6b"
  top: "L6b"
}
layer {
  name: "drop7b"
  type: "Dropout"
  bottom: "L6b"
  top: "L6b"
  dropout_param {
    dropout_ratio: 0.5
  }
}
layer {
  name: "L6c"
  type: "Convolution"
  bottom: "L5"
  top: "L6c"
  param {
    lr_mult: 5
    decay_mult: 0.1
  }
  param {
    lr_mult: 2
    decay_mult: 0
  }
  convolution_param {
    num_output: 4096
    kernel_size: 1
    weight_filler {
      type: "gaussian"
      std: 0.01
    }
    bias_filler {
      type: "constant"
      value: 1
    }
  }
}
layer {
  name: "relu7c"
  type: "ReLU"
  bottom: "L6c"
  top: "L6c"
}
layer {
  name: "drop7c"
  type: "Dropout"
  bottom: "L6c"
  top: "L6c"
  dropout_param {
    dropout_ratio: 0.5
  }
}
layer {
  name: "bb-output"
  type: "Convolution"
  bottom: "L6a"
  top: "bb-output"
  param {
    lr_mult: 20
    decay_mult: 0.1
  }
  param {
    lr_mult: 20
    decay_mult: 0
  }
  convolution_param {
    num_output: 256
    kernel_size: 1
    weight_filler {
      type: "gaussian"
      std: 0.01
    }
    bias_filler {
      type: "constant"
      value: 0
    }
  }
}
layer {
  name: "pixel-conv"
  type: "Convolution"
  bottom: "L6b"
  top: "pixel-conv"
  param {
    lr_mult: 1
    decay_mult: 1
  }
  param {
    lr_mult: 2
    decay_mult: 0
  }
  convolution_param {
    num_output: 128
    kernel_size: 1
    weight_filler {
      type: "gaussian"
      std: 0.01
    }
    bias_filler {
      type: "constant"
      value: 0
    }
  }
}
layer {
  name: "type-conv"
  type: "Convolution"
  bottom: "L6c"
  top: "type-conv"
  param {
    lr_mult: 1
    decay_mult: 1
  }
  param {
    lr_mult: 2
    decay_mult: 0
  }
  convolution_param {
    num_output: 1024
    kernel_size: 1
    weight_filler {
      type: "gaussian"
      std: 0.01
    }
    bias_filler {
      type: "constant"
      value: 0
    }
  }
}
layer {
  name: "pixel-tile"
  type: "Tiling"
  bottom: "pixel-conv"
  top: "pixel-conv-tiled"
  tiling_param {
    tile_dim: 8
  }
}
layer {
  name: "bb-tile"
  type: "Tiling"
  bottom: "bb-output"
  top: "bb-output-tiled"
  tiling_param {
    tile_dim: 8
  }
}
layer {
  name: "type-tile"
  type: "Tiling"
  bottom: "type-conv"
  top: "type-conv-tiled"
  tiling_param {
    tile_dim: 4
  }
}
layer {
  name: "pixel-loss"
  type: "SoftmaxWithLoss"
  bottom: "pixel-conv-tiled"
  bottom: "pixel-label"
  top: "pixel-loss"
  loss_weight: 1
}
layer {
  name: "pixel-acc"
  type: "Accuracy"
  bottom: "pixel-conv-tiled"
  bottom: "pixel-label"
  top: "pixel-acc"
  include {
    phase: TEST
  }
}
layer {
  name: "type-loss"
  type: "SoftmaxWithLoss"
  bottom: "type-conv-tiled"
  bottom: "type"
  top: "type-loss"
  loss_weight: 1
}
layer {
  name: "type-acc"
  type: "Accuracy"
  bottom: "type-conv-tiled"
  bottom: "type"
  top: "type-acc"
  include {
    phase: TEST
  }
}
layer {
  name: "bb-prob-mask"
  type: "Eltwise"
  bottom: "bb-output-tiled"
  bottom: "pixel-block"
  top: "bb-masked-output"
  eltwise_param {
    operation: PROD
  }
}
layer {
  name: "bb-size-normalization"
  type: "Eltwise"
  bottom: "bb-masked-output"
  bottom: "size-block"
  top: "bb-masked-output-sn"
  eltwise_param {
    operation: PROD
  }
}
layer {
  name: "bb-num-pixel-normalization"
  type: "Eltwise"
  bottom: "bb-masked-output-sn"
  bottom: "norm-block"
  top: "bb-masked-output-sn-nn"
  eltwise_param {
    operation: PROD
  }
}
layer {
  name: "bb-loss"
  type: "L1Loss"
  bottom: "bb-masked-output-sn-nn"
  bottom: "bb-label-sn-nn"
  top: "bb-loss"
  loss_weight: 3
}
I0920 11:45:16.502143 19099 layer_factory.hpp:76] Creating layer data
I0920 11:45:16.502382 19099 net.cpp:110] Creating Layer data
I0920 11:45:16.502394 19099 net.cpp:432] data -> data
I0920 11:45:16.502408 19099 net.cpp:432] data -> label
I0920 11:45:16.502419 19099 net.cpp:432] data -> type
I0920 11:45:16.502431 19099 data_transformer.cpp:23] Loading mean file from: ./driving_mean_train.binaryproto
I0920 11:45:16.504595 19160 db_lmdb.cpp:22] Opened lmdb ./LMDB_test
I0920 11:45:16.512912 19099 drive_data_layer.cpp:49] output data size: 10,3,480,640
I0920 11:45:16.575297 19099 net.cpp:155] Setting up data
I0920 11:45:16.575340 19099 net.cpp:163] Top shape: 10 3 480 640 (9216000)
I0920 11:45:16.575350 19099 net.cpp:163] Top shape: 10 8 120 160 (1536000)
I0920 11:45:16.575359 19099 net.cpp:163] Top shape: 10 1 60 80 (48000)
I0920 11:45:16.575368 19099 layer_factory.hpp:76] Creating layer type_data_2_split
I0920 11:45:16.575386 19099 net.cpp:110] Creating Layer type_data_2_split
I0920 11:45:16.575393 19099 net.cpp:476] type_data_2_split <- type
I0920 11:45:16.575407 19099 net.cpp:432] type_data_2_split -> type_data_2_split_0
I0920 11:45:16.575420 19099 net.cpp:432] type_data_2_split -> type_data_2_split_1
I0920 11:45:16.575433 19099 net.cpp:155] Setting up type_data_2_split
I0920 11:45:16.575443 19099 net.cpp:163] Top shape: 10 1 60 80 (48000)
I0920 11:45:16.575451 19099 net.cpp:163] Top shape: 10 1 60 80 (48000)
I0920 11:45:16.575459 19099 layer_factory.hpp:76] Creating layer slice-label
I0920 11:45:16.575471 19099 net.cpp:110] Creating Layer slice-label
I0920 11:45:16.575479 19099 net.cpp:476] slice-label <- label
I0920 11:45:16.575489 19099 net.cpp:432] slice-label -> pixel-label
I0920 11:45:16.575500 19099 net.cpp:432] slice-label -> bb-label
I0920 11:45:16.575510 19099 net.cpp:432] slice-label -> size-label
I0920 11:45:16.575520 19099 net.cpp:432] slice-label -> norm-label
I0920 11:45:16.575533 19099 net.cpp:155] Setting up slice-label
I0920 11:45:16.575542 19099 net.cpp:163] Top shape: 10 1 120 160 (192000)
I0920 11:45:16.575551 19099 net.cpp:163] Top shape: 10 4 120 160 (768000)
I0920 11:45:16.575568 19099 net.cpp:163] Top shape: 10 2 120 160 (384000)
I0920 11:45:16.575592 19099 net.cpp:163] Top shape: 10 1 120 160 (192000)
I0920 11:45:16.575599 19099 layer_factory.hpp:76] Creating layer pixel-label_slice-label_0_split
I0920 11:45:16.575609 19099 net.cpp:110] Creating Layer pixel-label_slice-label_0_split
I0920 11:45:16.575618 19099 net.cpp:476] pixel-label_slice-label_0_split <- pixel-label
I0920 11:45:16.575628 19099 net.cpp:432] pixel-label_slice-label_0_split -> pixel-label_slice-label_0_split_0
I0920 11:45:16.575639 19099 net.cpp:432] pixel-label_slice-label_0_split -> pixel-label_slice-label_0_split_1
I0920 11:45:16.575650 19099 net.cpp:432] pixel-label_slice-label_0_split -> pixel-label_slice-label_0_split_2
I0920 11:45:16.575660 19099 net.cpp:432] pixel-label_slice-label_0_split -> pixel-label_slice-label_0_split_3
I0920 11:45:16.575671 19099 net.cpp:432] pixel-label_slice-label_0_split -> pixel-label_slice-label_0_split_4
I0920 11:45:16.575681 19099 net.cpp:432] pixel-label_slice-label_0_split -> pixel-label_slice-label_0_split_5
I0920 11:45:16.575693 19099 net.cpp:155] Setting up pixel-label_slice-label_0_split
I0920 11:45:16.575702 19099 net.cpp:163] Top shape: 10 1 120 160 (192000)
I0920 11:45:16.575711 19099 net.cpp:163] Top shape: 10 1 120 160 (192000)
I0920 11:45:16.575719 19099 net.cpp:163] Top shape: 10 1 120 160 (192000)
I0920 11:45:16.575728 19099 net.cpp:163] Top shape: 10 1 120 160 (192000)
I0920 11:45:16.575736 19099 net.cpp:163] Top shape: 10 1 120 160 (192000)
I0920 11:45:16.575745 19099 net.cpp:163] Top shape: 10 1 120 160 (192000)
I0920 11:45:16.575753 19099 layer_factory.hpp:76] Creating layer size-label_slice-label_2_split
I0920 11:45:16.575762 19099 net.cpp:110] Creating Layer size-label_slice-label_2_split
I0920 11:45:16.575769 19099 net.cpp:476] size-label_slice-label_2_split <- size-label
I0920 11:45:16.575779 19099 net.cpp:432] size-label_slice-label_2_split -> size-label_slice-label_2_split_0
I0920 11:45:16.575789 19099 net.cpp:432] size-label_slice-label_2_split -> size-label_slice-label_2_split_1
I0920 11:45:16.575800 19099 net.cpp:155] Setting up size-label_slice-label_2_split
I0920 11:45:16.575809 19099 net.cpp:163] Top shape: 10 2 120 160 (384000)
I0920 11:45:16.575817 19099 net.cpp:163] Top shape: 10 2 120 160 (384000)
I0920 11:45:16.575825 19099 layer_factory.hpp:76] Creating layer norm-label_slice-label_3_split
I0920 11:45:16.575834 19099 net.cpp:110] Creating Layer norm-label_slice-label_3_split
I0920 11:45:16.575841 19099 net.cpp:476] norm-label_slice-label_3_split <- norm-label
I0920 11:45:16.575851 19099 net.cpp:432] norm-label_slice-label_3_split -> norm-label_slice-label_3_split_0
I0920 11:45:16.575861 19099 net.cpp:432] norm-label_slice-label_3_split -> norm-label_slice-label_3_split_1
I0920 11:45:16.575871 19099 net.cpp:432] norm-label_slice-label_3_split -> norm-label_slice-label_3_split_2
I0920 11:45:16.575881 19099 net.cpp:432] norm-label_slice-label_3_split -> norm-label_slice-label_3_split_3
I0920 11:45:16.575892 19099 net.cpp:155] Setting up norm-label_slice-label_3_split
I0920 11:45:16.575901 19099 net.cpp:163] Top shape: 10 1 120 160 (192000)
I0920 11:45:16.575909 19099 net.cpp:163] Top shape: 10 1 120 160 (192000)
I0920 11:45:16.575918 19099 net.cpp:163] Top shape: 10 1 120 160 (192000)
I0920 11:45:16.575927 19099 net.cpp:163] Top shape: 10 1 120 160 (192000)
I0920 11:45:16.575933 19099 layer_factory.hpp:76] Creating layer pixel-block
I0920 11:45:16.575944 19099 net.cpp:110] Creating Layer pixel-block
I0920 11:45:16.575951 19099 net.cpp:476] pixel-block <- pixel-label_slice-label_0_split_0
I0920 11:45:16.575960 19099 net.cpp:476] pixel-block <- pixel-label_slice-label_0_split_1
I0920 11:45:16.575968 19099 net.cpp:476] pixel-block <- pixel-label_slice-label_0_split_2
I0920 11:45:16.575976 19099 net.cpp:476] pixel-block <- pixel-label_slice-label_0_split_3
I0920 11:45:16.575986 19099 net.cpp:432] pixel-block -> pixel-block
I0920 11:45:16.575999 19099 net.cpp:155] Setting up pixel-block
I0920 11:45:16.576007 19099 net.cpp:163] Top shape: 10 4 120 160 (768000)
I0920 11:45:16.576025 19099 layer_factory.hpp:76] Creating layer size-block
I0920 11:45:16.576035 19099 net.cpp:110] Creating Layer size-block
I0920 11:45:16.576042 19099 net.cpp:476] size-block <- size-label_slice-label_2_split_0
I0920 11:45:16.576051 19099 net.cpp:476] size-block <- size-label_slice-label_2_split_1
I0920 11:45:16.576061 19099 net.cpp:432] size-block -> size-block
I0920 11:45:16.576077 19099 net.cpp:155] Setting up size-block
I0920 11:45:16.576087 19099 net.cpp:163] Top shape: 10 4 120 160 (768000)
I0920 11:45:16.576094 19099 layer_factory.hpp:76] Creating layer size-block_size-block_0_split
I0920 11:45:16.576104 19099 net.cpp:110] Creating Layer size-block_size-block_0_split
I0920 11:45:16.576112 19099 net.cpp:476] size-block_size-block_0_split <- size-block
I0920 11:45:16.576122 19099 net.cpp:432] size-block_size-block_0_split -> size-block_size-block_0_split_0
I0920 11:45:16.576131 19099 net.cpp:432] size-block_size-block_0_split -> size-block_size-block_0_split_1
I0920 11:45:16.576143 19099 net.cpp:155] Setting up size-block_size-block_0_split
I0920 11:45:16.576151 19099 net.cpp:163] Top shape: 10 4 120 160 (768000)
I0920 11:45:16.576159 19099 net.cpp:163] Top shape: 10 4 120 160 (768000)
I0920 11:45:16.576167 19099 layer_factory.hpp:76] Creating layer norm-block
I0920 11:45:16.576176 19099 net.cpp:110] Creating Layer norm-block
I0920 11:45:16.576184 19099 net.cpp:476] norm-block <- norm-label_slice-label_3_split_0
I0920 11:45:16.576192 19099 net.cpp:476] norm-block <- norm-label_slice-label_3_split_1
I0920 11:45:16.576200 19099 net.cpp:476] norm-block <- norm-label_slice-label_3_split_2
I0920 11:45:16.576208 19099 net.cpp:476] norm-block <- norm-label_slice-label_3_split_3
I0920 11:45:16.576217 19099 net.cpp:432] norm-block -> norm-block
I0920 11:45:16.576227 19099 net.cpp:155] Setting up norm-block
I0920 11:45:16.576236 19099 net.cpp:163] Top shape: 10 4 120 160 (768000)
I0920 11:45:16.576243 19099 layer_factory.hpp:76] Creating layer norm-block_norm-block_0_split
I0920 11:45:16.576252 19099 net.cpp:110] Creating Layer norm-block_norm-block_0_split
I0920 11:45:16.576259 19099 net.cpp:476] norm-block_norm-block_0_split <- norm-block
I0920 11:45:16.576269 19099 net.cpp:432] norm-block_norm-block_0_split -> norm-block_norm-block_0_split_0
I0920 11:45:16.576279 19099 net.cpp:432] norm-block_norm-block_0_split -> norm-block_norm-block_0_split_1
I0920 11:45:16.576289 19099 net.cpp:155] Setting up norm-block_norm-block_0_split
I0920 11:45:16.576298 19099 net.cpp:163] Top shape: 10 4 120 160 (768000)
I0920 11:45:16.576306 19099 net.cpp:163] Top shape: 10 4 120 160 (768000)
I0920 11:45:16.576314 19099 layer_factory.hpp:76] Creating layer bb-label-size-normalization
I0920 11:45:16.576324 19099 net.cpp:110] Creating Layer bb-label-size-normalization
I0920 11:45:16.576331 19099 net.cpp:476] bb-label-size-normalization <- bb-label
I0920 11:45:16.576340 19099 net.cpp:476] bb-label-size-normalization <- size-block_size-block_0_split_0
I0920 11:45:16.576349 19099 net.cpp:432] bb-label-size-normalization -> bb-label-sn
I0920 11:45:16.576360 19099 net.cpp:155] Setting up bb-label-size-normalization
I0920 11:45:16.576370 19099 net.cpp:163] Top shape: 10 4 120 160 (768000)
I0920 11:45:16.576376 19099 layer_factory.hpp:76] Creating layer bb-label-num-pixel-normalization
I0920 11:45:16.576385 19099 net.cpp:110] Creating Layer bb-label-num-pixel-normalization
I0920 11:45:16.576393 19099 net.cpp:476] bb-label-num-pixel-normalization <- bb-label-sn
I0920 11:45:16.576401 19099 net.cpp:476] bb-label-num-pixel-normalization <- norm-block_norm-block_0_split_0
I0920 11:45:16.576411 19099 net.cpp:432] bb-label-num-pixel-normalization -> bb-label-sn-nn
I0920 11:45:16.576421 19099 net.cpp:155] Setting up bb-label-num-pixel-normalization
I0920 11:45:16.576429 19099 net.cpp:163] Top shape: 10 4 120 160 (768000)
I0920 11:45:16.576436 19099 layer_factory.hpp:76] Creating layer L0
I0920 11:45:16.576448 19099 net.cpp:110] Creating Layer L0
I0920 11:45:16.576457 19099 net.cpp:476] L0 <- data
I0920 11:45:16.576470 19099 net.cpp:432] L0 -> L0
I0920 11:45:16.579682 19099 net.cpp:155] Setting up L0
I0920 11:45:16.579706 19099 net.cpp:163] Top shape: 10 96 118 158 (17898240)
I0920 11:45:16.579720 19099 layer_factory.hpp:76] Creating layer relu1
I0920 11:45:16.579728 19099 net.cpp:110] Creating Layer relu1
I0920 11:45:16.579735 19099 net.cpp:476] relu1 <- L0
I0920 11:45:16.579741 19099 net.cpp:419] relu1 -> L0 (in-place)
I0920 11:45:16.579749 19099 net.cpp:155] Setting up relu1
I0920 11:45:16.579754 19099 net.cpp:163] Top shape: 10 96 118 158 (17898240)
I0920 11:45:16.579759 19099 layer_factory.hpp:76] Creating layer norm1
I0920 11:45:16.579766 19099 net.cpp:110] Creating Layer norm1
I0920 11:45:16.579771 19099 net.cpp:476] norm1 <- L0
I0920 11:45:16.579777 19099 net.cpp:432] norm1 -> norm1
I0920 11:45:16.579783 19099 net.cpp:155] Setting up norm1
I0920 11:45:16.579789 19099 net.cpp:163] Top shape: 10 96 118 158 (17898240)
I0920 11:45:16.579793 19099 layer_factory.hpp:76] Creating layer pool1
I0920 11:45:16.579800 19099 net.cpp:110] Creating Layer pool1
I0920 11:45:16.579805 19099 net.cpp:476] pool1 <- norm1
I0920 11:45:16.579810 19099 net.cpp:432] pool1 -> pool1
I0920 11:45:16.579820 19099 net.cpp:155] Setting up pool1
I0920 11:45:16.579826 19099 net.cpp:163] Top shape: 10 96 59 79 (4474560)
I0920 11:45:16.579831 19099 layer_factory.hpp:76] Creating layer L1
I0920 11:45:16.579838 19099 net.cpp:110] Creating Layer L1
I0920 11:45:16.579843 19099 net.cpp:476] L1 <- pool1
I0920 11:45:16.579849 19099 net.cpp:432] L1 -> L1
I0920 11:45:16.588344 19099 net.cpp:155] Setting up L1
I0920 11:45:16.588368 19099 net.cpp:163] Top shape: 10 256 59 79 (11932160)
I0920 11:45:16.588379 19099 layer_factory.hpp:76] Creating layer relu2
I0920 11:45:16.588389 19099 net.cpp:110] Creating Layer relu2
I0920 11:45:16.588394 19099 net.cpp:476] relu2 <- L1
I0920 11:45:16.588402 19099 net.cpp:419] relu2 -> L1 (in-place)
I0920 11:45:16.588408 19099 net.cpp:155] Setting up relu2
I0920 11:45:16.588414 19099 net.cpp:163] Top shape: 10 256 59 79 (11932160)
I0920 11:45:16.588418 19099 layer_factory.hpp:76] Creating layer norm2
I0920 11:45:16.588426 19099 net.cpp:110] Creating Layer norm2
I0920 11:45:16.588430 19099 net.cpp:476] norm2 <- L1
I0920 11:45:16.588436 19099 net.cpp:432] norm2 -> norm2
I0920 11:45:16.588443 19099 net.cpp:155] Setting up norm2
I0920 11:45:16.588449 19099 net.cpp:163] Top shape: 10 256 59 79 (11932160)
I0920 11:45:16.588454 19099 layer_factory.hpp:76] Creating layer pool2
I0920 11:45:16.588459 19099 net.cpp:110] Creating Layer pool2
I0920 11:45:16.588464 19099 net.cpp:476] pool2 <- norm2
I0920 11:45:16.588470 19099 net.cpp:432] pool2 -> pool2
I0920 11:45:16.588479 19099 net.cpp:155] Setting up pool2
I0920 11:45:16.588485 19099 net.cpp:163] Top shape: 10 256 29 39 (2895360)
I0920 11:45:16.588488 19099 layer_factory.hpp:76] Creating layer L2
I0920 11:45:16.588496 19099 net.cpp:110] Creating Layer L2
I0920 11:45:16.588501 19099 net.cpp:476] L2 <- pool2
I0920 11:45:16.588507 19099 net.cpp:432] L2 -> L2
I0920 11:45:16.600028 19099 net.cpp:155] Setting up L2
I0920 11:45:16.600057 19099 net.cpp:163] Top shape: 10 384 29 39 (4343040)
I0920 11:45:16.600078 19099 layer_factory.hpp:76] Creating layer relu3
I0920 11:45:16.600092 19099 net.cpp:110] Creating Layer relu3
I0920 11:45:16.600101 19099 net.cpp:476] relu3 <- L2
I0920 11:45:16.600111 19099 net.cpp:419] relu3 -> L2 (in-place)
I0920 11:45:16.600122 19099 net.cpp:155] Setting up relu3
I0920 11:45:16.600131 19099 net.cpp:163] Top shape: 10 384 29 39 (4343040)
I0920 11:45:16.600138 19099 layer_factory.hpp:76] Creating layer L3
I0920 11:45:16.600150 19099 net.cpp:110] Creating Layer L3
I0920 11:45:16.600157 19099 net.cpp:476] L3 <- L2
I0920 11:45:16.600167 19099 net.cpp:432] L3 -> L3
I0920 11:45:16.620623 19099 net.cpp:155] Setting up L3
I0920 11:45:16.620659 19099 net.cpp:163] Top shape: 10 384 29 39 (4343040)
I0920 11:45:16.620673 19099 layer_factory.hpp:76] Creating layer relu4
I0920 11:45:16.620687 19099 net.cpp:110] Creating Layer relu4
I0920 11:45:16.620695 19099 net.cpp:476] relu4 <- L3
I0920 11:45:16.620718 19099 net.cpp:419] relu4 -> L3 (in-place)
I0920 11:45:16.620751 19099 net.cpp:155] Setting up relu4
I0920 11:45:16.620761 19099 net.cpp:163] Top shape: 10 384 29 39 (4343040)
I0920 11:45:16.620769 19099 layer_factory.hpp:76] Creating layer L4
I0920 11:45:16.620780 19099 net.cpp:110] Creating Layer L4
I0920 11:45:16.620788 19099 net.cpp:476] L4 <- L3
I0920 11:45:16.620800 19099 net.cpp:432] L4 -> L4
I0920 11:45:16.638504 19099 net.cpp:155] Setting up L4
I0920 11:45:16.638533 19099 net.cpp:163] Top shape: 10 384 29 39 (4343040)
I0920 11:45:16.638546 19099 layer_factory.hpp:76] Creating layer relu5
I0920 11:45:16.638556 19099 net.cpp:110] Creating Layer relu5
I0920 11:45:16.638562 19099 net.cpp:476] relu5 <- L4
I0920 11:45:16.638571 19099 net.cpp:419] relu5 -> L4 (in-place)
I0920 11:45:16.638590 19099 net.cpp:155] Setting up relu5
I0920 11:45:16.638597 19099 net.cpp:163] Top shape: 10 384 29 39 (4343040)
I0920 11:45:16.638600 19099 layer_factory.hpp:76] Creating layer pool5
I0920 11:45:16.638607 19099 net.cpp:110] Creating Layer pool5
I0920 11:45:16.638612 19099 net.cpp:476] pool5 <- L4
I0920 11:45:16.638618 19099 net.cpp:432] pool5 -> pool5
I0920 11:45:16.638628 19099 net.cpp:155] Setting up pool5
I0920 11:45:16.638633 19099 net.cpp:163] Top shape: 10 384 14 19 (1021440)
I0920 11:45:16.638638 19099 layer_factory.hpp:76] Creating layer L5
I0920 11:45:16.638645 19099 net.cpp:110] Creating Layer L5
I0920 11:45:16.638650 19099 net.cpp:476] L5 <- pool5
I0920 11:45:16.638656 19099 net.cpp:432] L5 -> L5
I0920 11:45:17.341480 19099 net.cpp:155] Setting up L5
I0920 11:45:17.341516 19099 net.cpp:163] Top shape: 10 4096 15 20 (12288000)
I0920 11:45:17.341526 19099 layer_factory.hpp:76] Creating layer relu6
I0920 11:45:17.341536 19099 net.cpp:110] Creating Layer relu6
I0920 11:45:17.341542 19099 net.cpp:476] relu6 <- L5
I0920 11:45:17.341548 19099 net.cpp:419] relu6 -> L5 (in-place)
I0920 11:45:17.341557 19099 net.cpp:155] Setting up relu6
I0920 11:45:17.341562 19099 net.cpp:163] Top shape: 10 4096 15 20 (12288000)
I0920 11:45:17.341565 19099 layer_factory.hpp:76] Creating layer drop6
I0920 11:45:17.341572 19099 net.cpp:110] Creating Layer drop6
I0920 11:45:17.341575 19099 net.cpp:476] drop6 <- L5
I0920 11:45:17.341580 19099 net.cpp:419] drop6 -> L5 (in-place)
I0920 11:45:17.341588 19099 net.cpp:155] Setting up drop6
I0920 11:45:17.341591 19099 net.cpp:163] Top shape: 10 4096 15 20 (12288000)
I0920 11:45:17.341595 19099 layer_factory.hpp:76] Creating layer L5_drop6_0_split
I0920 11:45:17.341601 19099 net.cpp:110] Creating Layer L5_drop6_0_split
I0920 11:45:17.341606 19099 net.cpp:476] L5_drop6_0_split <- L5
I0920 11:45:17.341611 19099 net.cpp:432] L5_drop6_0_split -> L5_drop6_0_split_0
I0920 11:45:17.341619 19099 net.cpp:432] L5_drop6_0_split -> L5_drop6_0_split_1
I0920 11:45:17.341624 19099 net.cpp:432] L5_drop6_0_split -> L5_drop6_0_split_2
I0920 11:45:17.341630 19099 net.cpp:155] Setting up L5_drop6_0_split
I0920 11:45:17.341635 19099 net.cpp:163] Top shape: 10 4096 15 20 (12288000)
I0920 11:45:17.341640 19099 net.cpp:163] Top shape: 10 4096 15 20 (12288000)
I0920 11:45:17.341645 19099 net.cpp:163] Top shape: 10 4096 15 20 (12288000)
I0920 11:45:17.341648 19099 layer_factory.hpp:76] Creating layer L6a
I0920 11:45:17.341657 19099 net.cpp:110] Creating Layer L6a
I0920 11:45:17.341661 19099 net.cpp:476] L6a <- L5_drop6_0_split_0
I0920 11:45:17.341667 19099 net.cpp:432] L6a -> L6a
I0920 11:45:17.505733 19099 net.cpp:155] Setting up L6a
I0920 11:45:17.505774 19099 net.cpp:163] Top shape: 10 4096 15 20 (12288000)
I0920 11:45:17.505784 19099 layer_factory.hpp:76] Creating layer relu7a
I0920 11:45:17.505793 19099 net.cpp:110] Creating Layer relu7a
I0920 11:45:17.505800 19099 net.cpp:476] relu7a <- L6a
I0920 11:45:17.505807 19099 net.cpp:419] relu7a -> L6a (in-place)
I0920 11:45:17.505816 19099 net.cpp:155] Setting up relu7a
I0920 11:45:17.505822 19099 net.cpp:163] Top shape: 10 4096 15 20 (12288000)
I0920 11:45:17.505826 19099 layer_factory.hpp:76] Creating layer drop7a
I0920 11:45:17.505834 19099 net.cpp:110] Creating Layer drop7a
I0920 11:45:17.505849 19099 net.cpp:476] drop7a <- L6a
I0920 11:45:17.505872 19099 net.cpp:419] drop7a -> L6a (in-place)
I0920 11:45:17.505878 19099 net.cpp:155] Setting up drop7a
I0920 11:45:17.505883 19099 net.cpp:163] Top shape: 10 4096 15 20 (12288000)
I0920 11:45:17.505888 19099 layer_factory.hpp:76] Creating layer L6b
I0920 11:45:17.505897 19099 net.cpp:110] Creating Layer L6b
I0920 11:45:17.505901 19099 net.cpp:476] L6b <- L5_drop6_0_split_1
I0920 11:45:17.505908 19099 net.cpp:432] L6b -> L6b
I0920 11:45:17.669260 19099 net.cpp:155] Setting up L6b
I0920 11:45:17.669297 19099 net.cpp:163] Top shape: 10 4096 15 20 (12288000)
I0920 11:45:17.669307 19099 layer_factory.hpp:76] Creating layer relu7b
I0920 11:45:17.669317 19099 net.cpp:110] Creating Layer relu7b
I0920 11:45:17.669322 19099 net.cpp:476] relu7b <- L6b
I0920 11:45:17.669329 19099 net.cpp:419] relu7b -> L6b (in-place)
I0920 11:45:17.669337 19099 net.cpp:155] Setting up relu7b
I0920 11:45:17.669342 19099 net.cpp:163] Top shape: 10 4096 15 20 (12288000)
I0920 11:45:17.669347 19099 layer_factory.hpp:76] Creating layer drop7b
I0920 11:45:17.669353 19099 net.cpp:110] Creating Layer drop7b
I0920 11:45:17.669358 19099 net.cpp:476] drop7b <- L6b
I0920 11:45:17.669363 19099 net.cpp:419] drop7b -> L6b (in-place)
I0920 11:45:17.669369 19099 net.cpp:155] Setting up drop7b
I0920 11:45:17.669373 19099 net.cpp:163] Top shape: 10 4096 15 20 (12288000)
I0920 11:45:17.669378 19099 layer_factory.hpp:76] Creating layer L6c
I0920 11:45:17.669384 19099 net.cpp:110] Creating Layer L6c
I0920 11:45:17.669389 19099 net.cpp:476] L6c <- L5_drop6_0_split_2
I0920 11:45:17.669395 19099 net.cpp:432] L6c -> L6c
I0920 11:45:17.833258 19099 net.cpp:155] Setting up L6c
I0920 11:45:17.833292 19099 net.cpp:163] Top shape: 10 4096 15 20 (12288000)
I0920 11:45:17.833304 19099 layer_factory.hpp:76] Creating layer relu7c
I0920 11:45:17.833314 19099 net.cpp:110] Creating Layer relu7c
I0920 11:45:17.833320 19099 net.cpp:476] relu7c <- L6c
I0920 11:45:17.833328 19099 net.cpp:419] relu7c -> L6c (in-place)
I0920 11:45:17.833336 19099 net.cpp:155] Setting up relu7c
I0920 11:45:17.833341 19099 net.cpp:163] Top shape: 10 4096 15 20 (12288000)
I0920 11:45:17.833345 19099 layer_factory.hpp:76] Creating layer drop7c
I0920 11:45:17.833351 19099 net.cpp:110] Creating Layer drop7c
I0920 11:45:17.833355 19099 net.cpp:476] drop7c <- L6c
I0920 11:45:17.833360 19099 net.cpp:419] drop7c -> L6c (in-place)
I0920 11:45:17.833367 19099 net.cpp:155] Setting up drop7c
I0920 11:45:17.833372 19099 net.cpp:163] Top shape: 10 4096 15 20 (12288000)
I0920 11:45:17.833376 19099 layer_factory.hpp:76] Creating layer bb-output
I0920 11:45:17.833384 19099 net.cpp:110] Creating Layer bb-output
I0920 11:45:17.833387 19099 net.cpp:476] bb-output <- L6a
I0920 11:45:17.833393 19099 net.cpp:432] bb-output -> bb-output
I0920 11:45:17.843938 19099 net.cpp:155] Setting up bb-output
I0920 11:45:17.843961 19099 net.cpp:163] Top shape: 10 256 15 20 (768000)
I0920 11:45:17.843971 19099 layer_factory.hpp:76] Creating layer pixel-conv
I0920 11:45:17.843981 19099 net.cpp:110] Creating Layer pixel-conv
I0920 11:45:17.843986 19099 net.cpp:476] pixel-conv <- L6b
I0920 11:45:17.843993 19099 net.cpp:432] pixel-conv -> pixel-conv
I0920 11:45:17.849380 19099 net.cpp:155] Setting up pixel-conv
I0920 11:45:17.849397 19099 net.cpp:163] Top shape: 10 128 15 20 (384000)
I0920 11:45:17.849406 19099 layer_factory.hpp:76] Creating layer type-conv
I0920 11:45:17.849413 19099 net.cpp:110] Creating Layer type-conv
I0920 11:45:17.849418 19099 net.cpp:476] type-conv <- L6c
I0920 11:45:17.849426 19099 net.cpp:432] type-conv -> type-conv
I0920 11:45:17.890655 19099 net.cpp:155] Setting up type-conv
I0920 11:45:17.890676 19099 net.cpp:163] Top shape: 10 1024 15 20 (3072000)
I0920 11:45:17.890686 19099 layer_factory.hpp:76] Creating layer pixel-tile
I0920 11:45:17.890692 19099 net.cpp:110] Creating Layer pixel-tile
I0920 11:45:17.890698 19099 net.cpp:476] pixel-tile <- pixel-conv
I0920 11:45:17.890704 19099 net.cpp:432] pixel-tile -> pixel-conv-tiled
I0920 11:45:17.890722 19099 net.cpp:155] Setting up pixel-tile
I0920 11:45:17.890743 19099 net.cpp:163] Top shape: 10 2 120 160 (384000)
I0920 11:45:17.890746 19099 layer_factory.hpp:76] Creating layer pixel-conv-tiled_pixel-tile_0_split
I0920 11:45:17.890753 19099 net.cpp:110] Creating Layer pixel-conv-tiled_pixel-tile_0_split
I0920 11:45:17.890758 19099 net.cpp:476] pixel-conv-tiled_pixel-tile_0_split <- pixel-conv-tiled
I0920 11:45:17.890763 19099 net.cpp:432] pixel-conv-tiled_pixel-tile_0_split -> pixel-conv-tiled_pixel-tile_0_split_0
I0920 11:45:17.890769 19099 net.cpp:432] pixel-conv-tiled_pixel-tile_0_split -> pixel-conv-tiled_pixel-tile_0_split_1
I0920 11:45:17.890776 19099 net.cpp:155] Setting up pixel-conv-tiled_pixel-tile_0_split
I0920 11:45:17.890781 19099 net.cpp:163] Top shape: 10 2 120 160 (384000)
I0920 11:45:17.890785 19099 net.cpp:163] Top shape: 10 2 120 160 (384000)
I0920 11:45:17.890789 19099 layer_factory.hpp:76] Creating layer bb-tile
I0920 11:45:17.890795 19099 net.cpp:110] Creating Layer bb-tile
I0920 11:45:17.890800 19099 net.cpp:476] bb-tile <- bb-output
I0920 11:45:17.890805 19099 net.cpp:432] bb-tile -> bb-output-tiled
I0920 11:45:17.890811 19099 net.cpp:155] Setting up bb-tile
I0920 11:45:17.890815 19099 net.cpp:163] Top shape: 10 4 120 160 (768000)
I0920 11:45:17.890820 19099 layer_factory.hpp:76] Creating layer type-tile
I0920 11:45:17.890825 19099 net.cpp:110] Creating Layer type-tile
I0920 11:45:17.890830 19099 net.cpp:476] type-tile <- type-conv
I0920 11:45:17.890835 19099 net.cpp:432] type-tile -> type-conv-tiled
I0920 11:45:17.890839 19099 net.cpp:155] Setting up type-tile
I0920 11:45:17.890844 19099 net.cpp:163] Top shape: 10 64 60 80 (3072000)
I0920 11:45:17.890848 19099 layer_factory.hpp:76] Creating layer type-conv-tiled_type-tile_0_split
I0920 11:45:17.890853 19099 net.cpp:110] Creating Layer type-conv-tiled_type-tile_0_split
I0920 11:45:17.890857 19099 net.cpp:476] type-conv-tiled_type-tile_0_split <- type-conv-tiled
I0920 11:45:17.890862 19099 net.cpp:432] type-conv-tiled_type-tile_0_split -> type-conv-tiled_type-tile_0_split_0
I0920 11:45:17.890868 19099 net.cpp:432] type-conv-tiled_type-tile_0_split -> type-conv-tiled_type-tile_0_split_1
I0920 11:45:17.890874 19099 net.cpp:155] Setting up type-conv-tiled_type-tile_0_split
I0920 11:45:17.890879 19099 net.cpp:163] Top shape: 10 64 60 80 (3072000)
I0920 11:45:17.890883 19099 net.cpp:163] Top shape: 10 64 60 80 (3072000)
I0920 11:45:17.890887 19099 layer_factory.hpp:76] Creating layer pixel-loss
I0920 11:45:17.890893 19099 net.cpp:110] Creating Layer pixel-loss
I0920 11:45:17.890897 19099 net.cpp:476] pixel-loss <- pixel-conv-tiled_pixel-tile_0_split_0
I0920 11:45:17.890903 19099 net.cpp:476] pixel-loss <- pixel-label_slice-label_0_split_4
I0920 11:45:17.890908 19099 net.cpp:432] pixel-loss -> pixel-loss
…
